…
I0603 17:09:45.373714 17324 upgrade_proto.cpp:67] Attempting to upgrade input file specified using deprecated input fields: /home/lab704/caffe-m/mynet/final40/deploy.prototxt
I0603 17:09:45.373764 17324 upgrade_proto.cpp:70] Successfully upgraded file specified using deprecated input fields.
W0603 17:09:45.373773 17324 upgrade_proto.cpp:72] Note that future Caffe releases will only support input layers and not input fields.
I0603 17:09:45.376327 17324 net.cpp:51] Initializing net from parameters: 
name: "ResNet-50"
state {
  phase: TEST
  level: 0
}
layer {
  name: "input"
  type: "Input"
  top: "data"
  input_param {
    shape {
      dim: 1
      dim: 3
      dim: 224
      dim: 224
    }
  }
}
layer {
  name: "conv1"
  type: "Convolution"
  bottom: "data"
  top: "conv1"
  convolution_param {
    num_output: 64
    pad: 3
    kernel_size: 7
    stride: 2
  }
}
layer {
  name: "bn_conv1"
  type: "BatchNorm"
  bottom: "conv1"
  top: "conv1"
  batch_norm_param {
    use_global_stats: true
  }
}
layer {
  name: "scale_conv1"
  type: "Scale"
  bottom: "conv1"
  top: "conv1"
  scale_param {
    bias_term: true
  }
}
layer {
  name: "conv1_relu"
  type: "ReLU"
  bottom: "conv1"
  top: "conv1"
}
layer {
  name: "pool1"
  type: "Pooling"
  bottom: "conv1"
  top: "pool1"
  pooling_param {
    pool: MAX
    kernel_size: 3
    stride: 2
  }
}
layer {
  name: "res2a_branch1"
  type: "Convolution"
  bottom: "pool1"
  top: "res2a_branch1"
  convolution_param {
    num_output: 256
    bias_term: false
    pad: 0
    kernel_size: 1
    stride: 1
  }
}
layer {
  name: "bn2a_branch1"
  type: "BatchNorm"
  bottom: "res2a_branch1"
  top: "res2a_branch1"
  batch_norm_param {
    use_global_stats: true
  }
}
layer {
  name: "scale2a_branch1"
  type: "Scale"
  bottom: "res2a_branch1"
  top: "res2a_branch1"
  scale_param {
    bias_term: true
  }
}
layer {
  name: "res2a_branch2a"
  type: "Convolution"
  bottom: "pool1"
  top: "res2a_branch2a"
  convolution_param {
    num_output: 64
    bias_term: false
    pad: 0
    kernel_size: 1
    stride: 1
  }
}
layer {
  name: "bn2a_branch2a"
  type: "BatchNorm"
  bottom: "res2a_branch2a"
  top: "res2a_branch2a"
  batch_norm_param {
    use_global_stats: true
  }
}
layer {
  name: "scale2a_branch2a"
  type: "Scale"
  bottom: "res2a_branch2a"
  top: "res2a_branch2a"
  scale_param {
    bias_term: true
  }
}
layer {
  name: "res2a_branch2a_relu"
  type: "ReLU"
  bottom: "res2a_branch2a"
  top: "res2a_branch2a"
}
layer {
  name: "res2a_branch2b"
  type: "Convolution"
  bottom: "res2a_branch2a"
  top: "res2a_branch2b"
  convolution_param {
    num_output: 64
    bias_term: false
    pad: 1
    kernel_size: 3
    stride: 1
  }
}
layer {
  name: "bn2a_branch2b"
  type: "BatchNorm"
  bottom: "res2a_branch2b"
  top: "res2a_branch2b"
  batch_norm_param {
    use_global_stats: true
  }
}
layer {
  name: "scale2a_branch2b"
  type: "Scale"
  bottom: "res2a_branch2b"
  top: "res2a_branch2b"
  scale_param {
    bias_term: true
  }
}
layer {
  name: "res2a_branch2b_relu"
  type: "ReLU"
  bottom: "res2a_branch2b"
  top: "res2a_branch2b"
}
layer {
  name: "res2a_branch2c"
  type: "Convolution"
  bottom: "res2a_branch2b"
  top: "res2a_branch2c"
  convolution_param {
    num_output: 256
    bias_term: false
    pad: 0
    kernel_size: 1
    stride: 1
  }
}
layer {
  name: "bn2a_branch2c"
  type: "BatchNorm"
  bottom: "res2a_branch2c"
  top: "res2a_branch2c"
  batch_norm_param {
    use_global_stats: true
  }
}
layer {
  name: "scale2a_branch2c"
  type: "Scale"
  bottom: "res2a_branch2c"
  top: "res2a_branch2c"
  scale_param {
    bias_term: true
  }
}
layer {
  name: "res2a"
  type: "Eltwise"
  bottom: "res2a_branch1"
  bottom: "res2a_branch2c"
  top: "res2a"
}
layer {
  name: "res2a_relu"
  type: "ReLU"
  bottom: "res2a"
  top: "res2a"
}
layer {
  name: "res2b_branch2a"
  type: "Convolution"
  bottom: "res2a"
  top: "res2b_branch2a"
  convolution_param {
    num_output: 64
    bias_term: false
    pad: 0
    kernel_size: 1
    stride: 1
  }
}
layer {
  name: "bn2b_branch2a"
  type: "BatchNorm"
  bottom: "res2b_branch2a"
  top: "res2b_branch2a"
  batch_norm_param {
    use_global_stats: true
  }
}
layer {
  name: "scale2b_branch2a"
  type: "Scale"
  bottom: "res2b_branch2a"
  top: "res2b_branch2a"
  scale_param {
    bias_term: true
  }
}
layer {
  name: "res2b_branch2a_relu"
  type: "ReLU"
  bottom: "res2b_branch2a"
  top: "res2b_branch2a"
}
layer {
  name: "res2b_branch2b"
  type: "Convolution"
  bottom: "res2b_branch2a"
  top: "res2b_branch2b"
  convolution_param {
    num_output: 64
    bias_term: false
    pad: 1
    kernel_size: 3
    stride: 1
  }
}
layer {
  name: "bn2b_branch2b"
  type: "BatchNorm"
  bottom: "res2b_branch2b"
  top: "res2b_branch2b"
  batch_norm_param {
    use_global_stats: true
  }
}
layer {
  name: "scale2b_branch2b"
  type: "Scale"
  bottom: "res2b_branch2b"
  top: "res2b_branch2b"
  scale_param {
    bias_term: true
  }
}
layer {
  name: "res2b_branch2b_relu"
  type: "ReLU"
  bottom: "res2b_branch2b"
  top: "res2b_branch2b"
}
layer {
  name: "res2b_branch2c"
  type: "Convolution"
  bottom: "res2b_branch2b"
  top: "res2b_branch2c"
  convolution_param {
    num_output: 256
    bias_term: false
    pad: 0
    kernel_size: 1
    stride: 1
  }
}
layer {
  name: "bn2b_branch2c"
  type: "BatchNorm"
  bottom: "res2b_branch2c"
  top: "res2b_branch2c"
  batch_norm_param {
    use_global_stats: true
  }
}
layer {
  name: "scale2b_branch2c"
  type: "Scale"
  bottom: "res2b_branch2c"
  top: "res2b_branch2c"
  scale_param {
    bias_term: true
  }
}
layer {
  name: "res2b"
  type: "Eltwise"
  bottom: "res2a"
  bottom: "res2b_branch2c"
  top: "res2b"
}
layer {
  name: "res2b_relu"
  type: "ReLU"
  bottom: "res2b"
  top: "res2b"
}
layer {
  name: "res2c_branch2a"
  type: "Convolution"
  bottom: "res2b"
  top: "res2c_branch2a"
  convolution_param {
    num_output: 64
    bias_term: false
    pad: 0
    kernel_size: 1
    stride: 1
  }
}
layer {
  name: "bn2c_branch2a"
  type: "BatchNorm"
  bottom: "res2c_branch2a"
  top: "res2c_branch2a"
  batch_norm_param {
    use_global_stats: true
  }
}
layer {
  name: "scale2c_branch2a"
  type: "Scale"
  bottom: "res2c_branch2a"
  top: "res2c_branch2a"
  scale_param {
    bias_term: true
  }
}
layer {
  name: "res2c_branch2a_relu"
  type: "ReLU"
  bottom: "res2c_branch2a"
  top: "res2c_branch2a"
}
layer {
  name: "res2c_branch2b"
  type: "Convolution"
  bottom: "res2c_branch2a"
  top: "res2c_branch2b"
  convolution_param {
    num_output: 64
    bias_term: false
    pad: 1
    kernel_size: 3
    stride: 1
  }
}
layer {
  name: "bn2c_branch2b"
  type: "BatchNorm"
  bottom: "res2c_branch2b"
  top: "res2c_branch2b"
  batch_norm_param {
    use_global_stats: true
  }
}
layer {
  name: "scale2c_branch2b"
  type: "Scale"
  bottom: "res2c_branch2b"
  top: "res2c_branch2b"
  scale_param {
    bias_term: true
  }
}
layer {
  name: "res2c_branch2b_relu"
  type: "ReLU"
  bottom: "res2c_branch2b"
  top: "res2c_branch2b"
}
layer {
  name: "res2c_branch2c"
  type: "Convolution"
  bottom: "res2c_branch2b"
  top: "res2c_branch2c"
  convolution_param {
    num_output: 256
    bias_term: false
    pad: 0
    kernel_size: 1
    stride: 1
  }
}
layer {
  name: "bn2c_branch2c"
  type: "BatchNorm"
  bottom: "res2c_branch2c"
  top: "res2c_branch2c"
  batch_norm_param {
    use_global_stats: true
  }
}
layer {
  name: "scale2c_branch2c"
  type: "Scale"
  bottom: "res2c_branch2c"
  top: "res2c_branch2c"
  scale_param {
    bias_term: true
  }
}
layer {
  name: "res2c"
  type: "Eltwise"
  bottom: "res2b"
  bottom: "res2c_branch2c"
  top: "res2c"
}
layer {
  name: "res2c_relu"
  type: "ReLU"
  bottom: "res2c"
  top: "res2c"
}
layer {
  name: "res3a_branch1"
  type: "Convolution"
  bottom: "res2c"
  top: "res3a_branch1"
  convolution_param {
    num_output: 512
    bias_term: false
    pad: 0
    kernel_size: 1
    stride: 2
  }
}
layer {
  name: "bn3a_branch1"
  type: "BatchNorm"
  bottom: "res3a_branch1"
  top: "res3a_branch1"
  batch_norm_param {
    use_global_stats: true
  }
}
layer {
  name: "scale3a_branch1"
  type: "Scale"
  bottom: "res3a_branch1"
  top: "res3a_branch1"
  scale_param {
    bias_term: true
  }
}
layer {
  name: "res3a_branch2a"
  type: "Convolution"
  bottom: "res2c"
  top: "res3a_branch2a"
  convolution_param {
    num_output: 128
    bias_term: false
    pad: 0
    kernel_size: 1
    stride: 2
  }
}
layer {
  name: "bn3a_branch2a"
  type: "BatchNorm"
  bottom: "res3a_branch2a"
  top: "res3a_branch2a"
  batch_norm_param {
    use_global_stats: true
  }
}
layer {
  name: "scale3a_branch2a"
  type: "Scale"
  bottom: "res3a_branch2a"
  top: "res3a_branch2a"
  scale_param {
    bias_term: true
  }
}
layer {
  name: "res3a_branch2a_relu"
  type: "ReLU"
  bottom: "res3a_branch2a"
  top: "res3a_branch2a"
}
layer {
  name: "res3a_branch2b"
  type: "Convolution"
  bottom: "res3a_branch2a"
  top: "res3a_branch2b"
  convolution_param {
    num_output: 128
    bias_term: false
    pad: 1
    kernel_size: 3
    stride: 1
  }
}
layer {
  name: "bn3a_branch2b"
  type: "BatchNorm"
  bottom: "res3a_branch2b"
  top: "res3a_branch2b"
  batch_norm_param {
    use_global_stats: true
  }
}
layer {
  name: "scale3a_branch2b"
  type: "Scale"
  bottom: "res3a_branch2b"
  top: "res3a_branch2b"
  scale_param {
    bias_term: true
  }
}
layer {
  name: "res3a_branch2b_relu"
  type: "ReLU"
  bottom: "res3a_branch2b"
  top: "res3a_branch2b"
}
layer {
  name: "res3a_branch2c"
  type: "Convolution"
  bottom: "res3a_branch2b"
  top: "res3a_branch2c"
  convolution_param {
    num_output: 512
    bias_term: false
    pad: 0
    kernel_size: 1
    stride: 1
  }
}
layer {
  name: "bn3a_branch2c"
  type: "BatchNorm"
  bottom: "res3a_branch2c"
  top: "res3a_branch2c"
  batch_norm_param {
    use_global_stats: true
  }
}
layer {
  name: "scale3a_branch2c"
  type: "Scale"
  bottom: "res3a_branch2c"
  top: "res3a_branch2c"
  scale_param {
    bias_term: true
  }
}
layer {
  name: "res3a"
  type: "Eltwise"
  bottom: "res3a_branch1"
  bottom: "res3a_branch2c"
  top: "res3a"
}
layer {
  name: "res3a_relu"
  type: "ReLU"
  bottom: "res3a"
  top: "res3a"
}
layer {
  name: "res3b_branch2a"
  type: "Convolution"
  bottom: "res3a"
  top: "res3b_branch2a"
  convolution_param {
    num_output: 128
    bias_term: false
    pad: 0
    kernel_size: 1
    stride: 1
  }
}
layer {
  name: "bn3b_branch2a"
  type: "BatchNorm"
  bottom: "res3b_branch2a"
  top: "res3b_branch2a"
  batch_norm_param {
    use_global_stats: true
  }
}
layer {
  name: "scale3b_branch2a"
  type: "Scale"
  bottom: "res3b_branch2a"
  top: "res3b_branch2a"
  scale_param {
    bias_term: true
  }
}
layer {
  name: "res3b_branch2a_relu"
  type: "ReLU"
  bottom: "res3b_branch2a"
  top: "res3b_branch2a"
}
layer {
  name: "res3b_branch2b"
  type: "Convolution"
  bottom: "res3b_branch2a"
  top: "res3b_branch2b"
  convolution_param {
    num_output: 128
    bias_term: false
    pad: 1
    kernel_size: 3
    stride: 1
  }
}
layer {
  name: "bn3b_branch2b"
  type: "BatchNorm"
  bottom: "res3b_branch2b"
  top: "res3b_branch2b"
  batch_norm_param {
    use_global_stats: true
  }
}
layer {
  name: "scale3b_branch2b"
  type: "Scale"
  bottom: "res3b_branch2b"
  top: "res3b_branch2b"
  scale_param {
    bias_term: true
  }
}
layer {
  name: "res3b_branch2b_relu"
  type: "ReLU"
  bottom: "res3b_branch2b"
  top: "res3b_branch2b"
}
layer {
  name: "res3b_branch2c"
  type: "Convolution"
  bottom: "res3b_branch2b"
  top: "res3b_branch2c"
  convolution_param {
    num_output: 512
    bias_term: false
    pad: 0
    kernel_size: 1
    stride: 1
  }
}
layer {
  name: "bn3b_branch2c"
  type: "BatchNorm"
  bottom: "res3b_branch2c"
  top: "res3b_branch2c"
  batch_norm_param {
    use_global_stats: true
  }
}
layer {
  name: "scale3b_branch2c"
  type: "Scale"
  bottom: "res3b_branch2c"
  top: "res3b_branch2c"
  scale_param {
    bias_term: true
  }
}
layer {
  name: "res3b"
  type: "Eltwise"
  bottom: "res3a"
  bottom: "res3b_branch2c"
  top: "res3b"
}
layer {
  name: "res3b_relu"
  type: "ReLU"
  bottom: "res3b"
  top: "res3b"
}
layer {
  name: "res3c_branch2a"
  type: "Convolution"
  bottom: "res3b"
  top: "res3c_branch2a"
  convolution_param {
    num_output: 128
    bias_term: false
    pad: 0
    kernel_size: 1
    stride: 1
  }
}
layer {
  name: "bn3c_branch2a"
  type: "BatchNorm"
  bottom: "res3c_branch2a"
  top: "res3c_branch2a"
  batch_norm_param {
    use_global_stats: true
  }
}
layer {
  name: "scale3c_branch2a"
  type: "Scale"
  bottom: "res3c_branch2a"
  top: "res3c_branch2a"
  scale_param {
    bias_term: true
  }
}
layer {
  name: "res3c_branch2a_relu"
  type: "ReLU"
  bottom: "res3c_branch2a"
  top: "res3c_branch2a"
}
layer {
  name: "res3c_branch2b"
  type: "Convolution"
  bottom: "res3c_branch2a"
  top: "res3c_branch2b"
  convolution_param {
    num_output: 128
    bias_term: false
    pad: 1
    kernel_size: 3
    stride: 1
  }
}
layer {
  name: "bn3c_branch2b"
  type: "BatchNorm"
  bottom: "res3c_branch2b"
  top: "res3c_branch2b"
  batch_norm_param {
    use_global_stats: true
  }
}
layer {
  name: "scale3c_branch2b"
  type: "Scale"
  bottom: "res3c_branch2b"
  top: "res3c_branch2b"
  scale_param {
    bias_term: true
  }
}
layer {
  name: "res3c_branch2b_relu"
  type: "ReLU"
  bottom: "res3c_branch2b"
  top: "res3c_branch2b"
}
layer {
  name: "res3c_branch2c"
  type: "Convolution"
  bottom: "res3c_branch2b"
  top: "res3c_branch2c"
  convolution_param {
    num_output: 512
    bias_term: false
    pad: 0
    kernel_size: 1
    stride: 1
  }
}
layer {
  name: "bn3c_branch2c"
  type: "BatchNorm"
  bottom: "res3c_branch2c"
  top: "res3c_branch2c"
  batch_norm_param {
    use_global_stats: true
  }
}
layer {
  name: "scale3c_branch2c"
  type: "Scale"
  bottom: "res3c_branch2c"
  top: "res3c_branch2c"
  scale_param {
    bias_term: true
  }
}
layer {
  name: "res3c"
  type: "Eltwise"
  bottom: "res3b"
  bottom: "res3c_branch2c"
  top: "res3c"
}
layer {
  name: "res3c_relu"
  type: "ReLU"
  bottom: "res3c"
  top: "res3c"
}
layer {
  name: "res3d_branch2a"
  type: "Convolution"
  bottom: "res3c"
  top: "res3d_branch2a"
  convolution_param {
    num_output: 128
    bias_term: false
    pad: 0
    kernel_size: 1
    stride: 1
  }
}
layer {
  name: "bn3d_branch2a"
  type: "BatchNorm"
  bottom: "res3d_branch2a"
  top: "res3d_branch2a"
  batch_norm_param {
    use_global_stats: true
  }
}
layer {
  name: "scale3d_branch2a"
  type: "Scale"
  bottom: "res3d_branch2a"
  top: "res3d_branch2a"
  scale_param {
    bias_term: true
  }
}
layer {
  name: "res3d_branch2a_relu"
  type: "ReLU"
  bottom: "res3d_branch2a"
  top: "res3d_branch2a"
}
layer {
  name: "res3d_branch2b"
  type: "Convolution"
  bottom: "res3d_branch2a"
  top: "res3d_branch2b"
  convolution_param {
    num_output: 128
    bias_term: false
    pad: 1
    kernel_size: 3
    stride: 1
  }
}
layer {
  name: "bn3d_branch2b"
  type: "BatchNorm"
  bottom: "res3d_branch2b"
  top: "res3d_branch2b"
  batch_norm_param {
    use_global_stats: true
  }
}
layer {
  name: "scale3d_branch2b"
  type: "Scale"
  bottom: "res3d_branch2b"
  top: "res3d_branch2b"
  scale_param {
    bias_term: true
  }
}
layer {
  name: "res3d_branch2b_relu"
  type: "ReLU"
  bottom: "res3d_branch2b"
  top: "res3d_branch2b"
}
layer {
  name: "res3d_branch2c"
  type: "Convolution"
  bottom: "res3d_branch2b"
  top: "res3d_branch2c"
  convolution_param {
    num_output: 512
    bias_term: false
    pad: 0
    kernel_size: 1
    stride: 1
  }
}
layer {
  name: "bn3d_branch2c"
  type: "BatchNorm"
  bottom: "res3d_branch2c"
  top: "res3d_branch2c"
  batch_norm_param {
    use_global_stats: true
  }
}
layer {
  name: "scale3d_branch2c"
  type: "Scale"
  bottom: "res3d_branch2c"
  top: "res3d_branch2c"
  scale_param {
    bias_term: true
  }
}
layer {
  name: "res3d"
  type: "Eltwise"
  bottom: "res3c"
  bottom: "res3d_branch2c"
  top: "res3d"
}
layer {
  name: "res3d_relu"
  type: "ReLU"
  bottom: "res3d"
  top: "res3d"
}
layer {
  name: "res4a_branch1"
  type: "Convolution"
  bottom: "res3d"
  top: "res4a_branch1"
  convolution_param {
    num_output: 1024
    bias_term: false
    pad: 0
    kernel_size: 1
    stride: 2
  }
}
layer {
  name: "bn4a_branch1"
  type: "BatchNorm"
  bottom: "res4a_branch1"
  top: "res4a_branch1"
  batch_norm_param {
    use_global_stats: true
  }
}
layer {
  name: "scale4a_branch1"
  type: "Scale"
  bottom: "res4a_branch1"
  top: "res4a_branch1"
  scale_param {
    bias_term: true
  }
}
layer {
  name: "res4a_branch2a"
  type: "Convolution"
  bottom: "res3d"
  top: "res4a_branch2a"
  convolution_param {
    num_output: 256
    bias_term: false
    pad: 0
    kernel_size: 1
    stride: 2
  }
}
layer {
  name: "bn4a_branch2a"
  type: "BatchNorm"
  bottom: "res4a_branch2a"
  top: "res4a_branch2a"
  batch_norm_param {
    use_global_stats: true
  }
}
layer {
  name: "scale4a_branch2a"
  type: "Scale"
  bottom: "res4a_branch2a"
  top: "res4a_branch2a"
  scale_param {
    bias_term: true
  }
}
layer {
  name: "res4a_branch2a_relu"
  type: "ReLU"
  bottom: "res4a_branch2a"
  top: "res4a_branch2a"
}
layer {
  name: "res4a_branch2b"
  type: "Convolution"
  bottom: "res4a_branch2a"
  top: "res4a_branch2b"
  convolution_param {
    num_output: 256
    bias_term: false
    pad: 1
    kernel_size: 3
    stride: 1
  }
}
layer {
  name: "bn4a_branch2b"
  type: "BatchNorm"
  bottom: "res4a_branch2b"
  top: "res4a_branch2b"
  batch_norm_param {
    use_global_stats: true
  }
}
layer {
  name: "scale4a_branch2b"
  type: "Scale"
  bottom: "res4a_branch2b"
  top: "res4a_branch2b"
  scale_param {
    bias_term: true
  }
}
layer {
  name: "res4a_branch2b_relu"
  type: "ReLU"
  bottom: "res4a_branch2b"
  top: "res4a_branch2b"
}
layer {
  name: "res4a_branch2c"
  type: "Convolution"
  bottom: "res4a_branch2b"
  top: "res4a_branch2c"
  convolution_param {
    num_output: 1024
    bias_term: false
    pad: 0
    kernel_size: 1
    stride: 1
  }
}
layer {
  name: "bn4a_branch2c"
  type: "BatchNorm"
  bottom: "res4a_branch2c"
  top: "res4a_branch2c"
  batch_norm_param {
    use_global_stats: true
  }
}
layer {
  name: "scale4a_branch2c"
  type: "Scale"
  bottom: "res4a_branch2c"
  top: "res4a_branch2c"
  scale_param {
    bias_term: true
  }
}
layer {
  name: "res4a"
  type: "Eltwise"
  bottom: "res4a_branch1"
  bottom: "res4a_branch2c"
  top: "res4a"
}
layer {
  name: "res4a_relu"
  type: "ReLU"
  bottom: "res4a"
  top: "res4a"
}
layer {
  name: "res4b_branch2a"
  type: "Convolution"
  bottom: "res4a"
  top: "res4b_branch2a"
  convolution_param {
    num_output: 256
    bias_term: false
    pad: 0
    kernel_size: 1
    stride: 1
  }
}
layer {
  name: "bn4b_branch2a"
  type: "BatchNorm"
  bottom: "res4b_branch2a"
  top: "res4b_branch2a"
  batch_norm_param {
    use_global_stats: true
  }
}
layer {
  name: "scale4b_branch2a"
  type: "Scale"
  bottom: "res4b_branch2a"
  top: "res4b_branch2a"
  scale_param {
    bias_term: true
  }
}
layer {
  name: "res4b_branch2a_relu"
  type: "ReLU"
  bottom: "res4b_branch2a"
  top: "res4b_branch2a"
}
layer {
  name: "res4b_branch2b"
  type: "Convolution"
  bottom: "res4b_branch2a"
  top: "res4b_branch2b"
  convolution_param {
    num_output: 256
    bias_term: false
    pad: 1
    kernel_size: 3
    stride: 1
  }
}
layer {
  name: "bn4b_branch2b"
  type: "BatchNorm"
  bottom: "res4b_branch2b"
  top: "res4b_branch2b"
  batch_norm_param {
    use_global_stats: true
  }
}
layer {
  name: "scale4b_branch2b"
  type: "Scale"
  bottom: "res4b_branch2b"
  top: "res4b_branch2b"
  scale_param {
    bias_term: true
  }
}
layer {
  name: "res4b_branch2b_relu"
  type: "ReLU"
  bottom: "res4b_branch2b"
  top: "res4b_branch2b"
}
layer {
  name: "res4b_branch2c"
  type: "Convolution"
  bottom: "res4b_branch2b"
  top: "res4b_branch2c"
  convolution_param {
    num_output: 1024
    bias_term: false
    pad: 0
    kernel_size: 1
    stride: 1
  }
}
layer {
  name: "bn4b_branch2c"
  type: "BatchNorm"
  bottom: "res4b_branch2c"
  top: "res4b_branch2c"
  batch_norm_param {
    use_global_stats: true
  }
}
layer {
  name: "scale4b_branch2c"
  type: "Scale"
  bottom: "res4b_branch2c"
  top: "res4b_branch2c"
  scale_param {
    bias_term: true
  }
}
layer {
  name: "res4b"
  type: "Eltwise"
  bottom: "res4a"
  bottom: "res4b_branch2c"
  top: "res4b"
}
layer {
  name: "res4b_relu"
  type: "ReLU"
  bottom: "res4b"
  top: "res4b"
}
layer {
  name: "res4c_branch2a"
  type: "Convolution"
  bottom: "res4b"
  top: "res4c_branch2a"
  convolution_param {
    num_output: 256
    bias_term: false
    pad: 0
    kernel_size: 1
    stride: 1
  }
}
layer {
  name: "bn4c_branch2a"
  type: "BatchNorm"
  bottom: "res4c_branch2a"
  top: "res4c_branch2a"
  batch_norm_param {
    use_global_stats: true
  }
}
layer {
  name: "scale4c_branch2a"
  type: "Scale"
  bottom: "res4c_branch2a"
  top: "res4c_branch2a"
  scale_param {
    bias_term: true
  }
}
layer {
  name: "res4c_branch2a_relu"
  type: "ReLU"
  bottom: "res4c_branch2a"
  top: "res4c_branch2a"
}
layer {
  name: "res4c_branch2b"
  type: "Convolution"
  bottom: "res4c_branch2a"
  top: "res4c_branch2b"
  convolution_param {
    num_output: 256
    bias_term: false
    pad: 1
    kernel_size: 3
    stride: 1
  }
}
layer {
  name: "bn4c_branch2b"
  type: "BatchNorm"
  bottom: "res4c_branch2b"
  top: "res4c_branch2b"
  batch_norm_param {
    use_global_stats: true
  }
}
layer {
  name: "scale4c_branch2b"
  type: "Scale"
  bottom: "res4c_branch2b"
  top: "res4c_branch2b"
  scale_param {
    bias_term: true
  }
}
layer {
  name: "res4c_branch2b_relu"
  type: "ReLU"
  bottom: "res4c_branch2b"
  top: "res4c_branch2b"
}
layer {
  name: "res4c_branch2c"
  type: "Convolution"
  bottom: "res4c_branch2b"
  top: "res4c_branch2c"
  convolution_param {
    num_output: 1024
    bias_term: false
    pad: 0
    kernel_size: 1
    stride: 1
  }
}
layer {
  name: "bn4c_branch2c"
  type: "BatchNorm"
  bottom: "res4c_branch2c"
  top: "res4c_branch2c"
  batch_norm_param {
    use_global_stats: true
  }
}
layer {
  name: "scale4c_branch2c"
  type: "Scale"
  bottom: "res4c_branch2c"
  top: "res4c_branch2c"
  scale_param {
    bias_term: true
  }
}
layer {
  name: "res4c"
  type: "Eltwise"
  bottom: "res4b"
  bottom: "res4c_branch2c"
  top: "res4c"
}
layer {
  name: "res4c_relu"
  type: "ReLU"
  bottom: "res4c"
  top: "res4c"
}
layer {
  name: "res4d_branch2a"
  type: "Convolution"
  bottom: "res4c"
  top: "res4d_branch2a"
  convolution_param {
    num_output: 256
    bias_term: false
    pad: 0
    kernel_size: 1
    stride: 1
  }
}
layer {
  name: "bn4d_branch2a"
  type: "BatchNorm"
  bottom: "res4d_branch2a"
  top: "res4d_branch2a"
  batch_norm_param {
    use_global_stats: true
  }
}
layer {
  name: "scale4d_branch2a"
  type: "Scale"
  bottom: "res4d_branch2a"
  top: "res4d_branch2a"
  scale_param {
    bias_term: true
  }
}
layer {
  name: "res4d_branch2a_relu"
  type: "ReLU"
  bottom: "res4d_branch2a"
  top: "res4d_branch2a"
}
layer {
  name: "res4d_branch2b"
  type: "Convolution"
  bottom: "res4d_branch2a"
  top: "res4d_branch2b"
  convolution_param {
    num_output: 256
    bias_term: false
    pad: 1
    kernel_size: 3
    stride: 1
  }
}
layer {
  name: "bn4d_branch2b"
  type: "BatchNorm"
  bottom: "res4d_branch2b"
  top: "res4d_branch2b"
  batch_norm_param {
    use_global_stats: true
  }
}
layer {
  name: "scale4d_branch2b"
  type: "Scale"
  bottom: "res4d_branch2b"
  top: "res4d_branch2b"
  scale_param {
    bias_term: true
  }
}
layer {
  name: "res4d_branch2b_relu"
  type: "ReLU"
  bottom: "res4d_branch2b"
  top: "res4d_branch2b"
}
layer {
  name: "res4d_branch2c"
  type: "Convolution"
  bottom: "res4d_branch2b"
  top: "res4d_branch2c"
  convolution_param {
    num_output: 1024
    bias_term: false
    pad: 0
    kernel_size: 1
    stride: 1
  }
}
layer {
  name: "bn4d_branch2c"
  type: "BatchNorm"
  bottom: "res4d_branch2c"
  top: "res4d_branch2c"
  batch_norm_param {
    use_global_stats: true
  }
}
layer {
  name: "scale4d_branch2c"
  type: "Scale"
  bottom: "res4d_branch2c"
  top: "res4d_branch2c"
  scale_param {
    bias_term: true
  }
}
layer {
  name: "res4d"
  type: "Eltwise"
  bottom: "res4c"
  bottom: "res4d_branch2c"
  top: "res4d"
}
layer {
  name: "res4d_relu"
  type: "ReLU"
  bottom: "res4d"
  top: "res4d"
}
layer {
  name: "res4e_branch2a"
  type: "Convolution"
  bottom: "res4d"
  top: "res4e_branch2a"
  convolution_param {
    num_output: 256
    bias_term: false
    pad: 0
    kernel_size: 1
    stride: 1
  }
}
layer {
  name: "bn4e_branch2a"
  type: "BatchNorm"
  bottom: "res4e_branch2a"
  top: "res4e_branch2a"
  batch_norm_param {
    use_global_stats: true
  }
}
layer {
  name: "scale4e_branch2a"
  type: "Scale"
  bottom: "res4e_branch2a"
  top: "res4e_branch2a"
  scale_param {
    bias_term: true
  }
}
layer {
  name: "res4e_branch2a_relu"
  type: "ReLU"
  bottom: "res4e_branch2a"
  top: "res4e_branch2a"
}
layer {
  name: "res4e_branch2b"
  type: "Convolution"
  bottom: "res4e_branch2a"
  top: "res4e_branch2b"
  convolution_param {
    num_output: 256
    bias_term: false
    pad: 1
    kernel_size: 3
    stride: 1
  }
}
layer {
  name: "bn4e_branch2b"
  type: "BatchNorm"
  bottom: "res4e_branch2b"
  top: "res4e_branch2b"
  batch_norm_param {
    use_global_stats: true
  }
}
layer {
  name: "scale4e_branch2b"
  type: "Scale"
  bottom: "res4e_branch2b"
  top: "res4e_branch2b"
  scale_param {
    bias_term: true
  }
}
layer {
  name: "res4e_branch2b_relu"
  type: "ReLU"
  bottom: "res4e_branch2b"
  top: "res4e_branch2b"
}
layer {
  name: "res4e_branch2c"
  type: "Convolution"
  bottom: "res4e_branch2b"
  top: "res4e_branch2c"
  convolution_param {
    num_output: 1024
    bias_term: false
    pad: 0
    kernel_size: 1
    stride: 1
  }
}
layer {
  name: "bn4e_branch2c"
  type: "BatchNorm"
  bottom: "res4e_branch2c"
  top: "res4e_branch2c"
  batch_norm_param {
    use_global_stats: true
  }
}
layer {
  name: "scale4e_branch2c"
  type: "Scale"
  bottom: "res4e_branch2c"
  top: "res4e_branch2c"
  scale_param {
    bias_term: true
  }
}
layer {
  name: "res4e"
  type: "Eltwise"
  bottom: "res4d"
  bottom: "res4e_branch2c"
  top: "res4e"
}
layer {
  name: "res4e_relu"
  type: "ReLU"
  bottom: "res4e"
  top: "res4e"
}
layer {
  name: "res4f_branch2a"
  type: "Convolution"
  bottom: "res4e"
  top: "res4f_branch2a"
  convolution_param {
    num_output: 256
    bias_term: false
    pad: 0
    kernel_size: 1
    stride: 1
  }
}
layer {
  name: "bn4f_branch2a"
  type: "BatchNorm"
  bottom: "res4f_branch2a"
  top: "res4f_branch2a"
  batch_norm_param {
    use_global_stats: true
  }
}
layer {
  name: "scale4f_branch2a"
  type: "Scale"
  bottom: "res4f_branch2a"
  top: "res4f_branch2a"
  scale_param {
    bias_term: true
  }
}
layer {
  name: "res4f_branch2a_relu"
  type: "ReLU"
  bottom: "res4f_branch2a"
  top: "res4f_branch2a"
}
layer {
  name: "res4f_branch2b"
  type: "Convolution"
  bottom: "res4f_branch2a"
  top: "res4f_branch2b"
  convolution_param {
    num_output: 256
    bias_term: false
    pad: 1
    kernel_size: 3
    stride: 1
  }
}
layer {
  name: "bn4f_branch2b"
  type: "BatchNorm"
  bottom: "res4f_branch2b"
  top: "res4f_branch2b"
  batch_norm_param {
    use_global_stats: true
  }
}
layer {
  name: "scale4f_branch2b"
  type: "Scale"
  bottom: "res4f_branch2b"
  top: "res4f_branch2b"
  scale_param {
    bias_term: true
  }
}
layer {
  name: "res4f_branch2b_relu"
  type: "ReLU"
  bottom: "res4f_branch2b"
  top: "res4f_branch2b"
}
layer {
  name: "res4f_branch2c"
  type: "Convolution"
  bottom: "res4f_branch2b"
  top: "res4f_branch2c"
  convolution_param {
    num_output: 1024
    bias_term: false
    pad: 0
    kernel_size: 1
    stride: 1
  }
}
layer {
  name: "bn4f_branch2c"
  type: "BatchNorm"
  bottom: "res4f_branch2c"
  top: "res4f_branch2c"
  batch_norm_param {
    use_global_stats: true
  }
}
layer {
  name: "scale4f_branch2c"
  type: "Scale"
  bottom: "res4f_branch2c"
  top: "res4f_branch2c"
  scale_param {
    bias_term: true
  }
}
layer {
  name: "res4f"
  type: "Eltwise"
  bottom: "res4e"
  bottom: "res4f_branch2c"
  top: "res4f"
}
layer {
  name: "res4f_relu"
  type: "ReLU"
  bottom: "res4f"
  top: "res4f"
}
layer {
  name: "res5a_branch1"
  type: "Convolution"
  bottom: "res4f"
  top: "res5a_branch1"
  convolution_param {
    num_output: 2048
    bias_term: false
    pad: 0
    kernel_size: 1
    stride: 2
  }
}
layer {
  name: "bn5a_branch1"
  type: "BatchNorm"
  bottom: "res5a_branch1"
  top: "res5a_branch1"
  batch_norm_param {
    use_global_stats: true
  }
}
layer {
  name: "scale5a_branch1"
  type: "Scale"
  bottom: "res5a_branch1"
  top: "res5a_branch1"
  scale_param {
    bias_term: true
  }
}
layer {
  name: "res5a_branch2a"
  type: "Convolution"
  bottom: "res4f"
  top: "res5a_branch2a"
  convolution_param {
    num_output: 512
    bias_term: false
    pad: 0
    kernel_size: 1
    stride: 2
  }
}
layer {
  name: "bn5a_branch2a"
  type: "BatchNorm"
  bottom: "res5a_branch2a"
  top: "res5a_branch2a"
  batch_norm_param {
    use_global_stats: true
  }
}
layer {
  name: "scale5a_branch2a"
  type: "Scale"
  bottom: "res5a_branch2a"
  top: "res5a_branch2a"
  scale_param {
    bias_term: true
  }
}
layer {
  name: "res5a_branch2a_relu"
  type: "ReLU"
  bottom: "res5a_branch2a"
  top: "res5a_branch2a"
}
layer {
  name: "res5a_branch2b"
  type: "Convolution"
  bottom: "res5a_branch2a"
  top: "res5a_branch2b"
  convolution_param {
    num_output: 512
    bias_term: false
    pad: 1
    kernel_size: 3
    stride: 1
  }
}
layer {
  name: "bn5a_branch2b"
  type: "BatchNorm"
  bottom: "res5a_branch2b"
  top: "res5a_branch2b"
  batch_norm_param {
    use_global_stats: true
  }
}
layer {
  name: "scale5a_branch2b"
  type: "Scale"
  bottom: "res5a_branch2b"
  top: "res5a_branch2b"
  scale_param {
    bias_term: true
  }
}
layer {
  name: "res5a_branch2b_relu"
  type: "ReLU"
  bottom: "res5a_branch2b"
  top: "res5a_branch2b"
}
layer {
  name: "res5a_branch2c"
  type: "Convolution"
  bottom: "res5a_branch2b"
  top: "res5a_branch2c"
  convolution_param {
    num_output: 2048
    bias_term: false
    pad: 0
    kernel_size: 1
    stride: 1
  }
}
layer {
  name: "bn5a_branch2c"
  type: "BatchNorm"
  bottom: "res5a_branch2c"
  top: "res5a_branch2c"
  batch_norm_param {
    use_global_stats: true
  }
}
layer {
  name: "scale5a_branch2c"
  type: "Scale"
  bottom: "res5a_branch2c"
  top: "res5a_branch2c"
  scale_param
I0603 17:09:45.377344 17324 layer_factory.hpp:77] Creating layer input
I0603 17:09:45.377370 17324 net.cpp:84] Creating Layer input
I0603 17:09:45.377382 17324 net.cpp:380] input -> data
I0603 17:09:45.390027 17324 net.cpp:122] Setting up input
I0603 17:09:45.390067 17324 net.cpp:129] Top shape: 1 3 224 224 (150528)
I0603 17:09:45.390076 17324 net.cpp:137] Memory required for data: 602112
I0603 17:09:45.390086 17324 layer_factory.hpp:77] Creating layer conv1
I0603 17:09:45.390113 17324 net.cpp:84] Creating Layer conv1
I0603 17:09:45.390122 17324 net.cpp:406] conv1 <- data
I0603 17:09:45.390136 17324 net.cpp:380] conv1 -> conv1
I0603 17:09:45.390899 17324 net.cpp:122] Setting up conv1
I0603 17:09:45.390919 17324 net.cpp:129] Top shape: 1 64 112 112 (802816)
I0603 17:09:45.390928 17324 net.cpp:137] Memory required for data: 3813376
I0603 17:09:45.390946 17324 layer_factory.hpp:77] Creating layer bn_conv1
I0603 17:09:45.390959 17324 net.cpp:84] Creating Layer bn_conv1
I0603 17:09:45.390967 17324 net.cpp:406] bn_conv1 <- conv1
I0603 17:09:45.390980 17324 net.cpp:367] bn_conv1 -> conv1 (in-place)
I0603 17:09:45.391204 17324 net.cpp:122] Setting up bn_conv1
I0603 17:09:45.391222 17324 net.cpp:129] Top shape: 1 64 112 112 (802816)
I0603 17:09:45.391228 17324 net.cpp:137] Memory required for data: 7024640
I0603 17:09:45.391247 17324 layer_factory.hpp:77] Creating layer scale_conv1
I0603 17:09:45.391264 17324 net.cpp:84] Creating Layer scale_conv1
I0603 17:09:45.391271 17324 net.cpp:406] scale_conv1 <- conv1
I0603 17:09:45.391283 17324 net.cpp:367] scale_conv1 -> conv1 (in-place)
I0603 17:09:45.391336 17324 layer_factory.hpp:77] Creating layer scale_conv1
I0603 17:09:45.391489 17324 net.cpp:122] Setting up scale_conv1
I0603 17:09:45.391502 17324 net.cpp:129] Top shape: 1 64 112 112 (802816)
I0603 17:09:45.391507 17324 net.cpp:137] Memory required for data: 10235904
I0603 17:09:45.391516 17324 layer_factory.hpp:77] Creating layer conv1_relu
I0603 17:09:45.391525 17324 net.cpp:84] Creating Layer conv1_relu
I0603 17:09:45.391530 17324 net.cpp:406] conv1_relu <- conv1
I0603 17:09:45.391546 17324 net.cpp:367] conv1_relu -> conv1 (in-place)
I0603 17:09:45.391562 17324 net.cpp:122] Setting up conv1_relu
I0603 17:09:45.391572 17324 net.cpp:129] Top shape: 1 64 112 112 (802816)
I0603 17:09:45.391579 17324 net.cpp:137] Memory required for data: 13447168
I0603 17:09:45.391587 17324 layer_factory.hpp:77] Creating layer pool1
I0603 17:09:45.391599 17324 net.cpp:84] Creating Layer pool1
I0603 17:09:45.391607 17324 net.cpp:406] pool1 <- conv1
I0603 17:09:45.391616 17324 net.cpp:380] pool1 -> pool1
I0603 17:09:45.391669 17324 net.cpp:122] Setting up pool1
I0603 17:09:45.391681 17324 net.cpp:129] Top shape: 1 64 56 56 (200704)
I0603 17:09:45.391688 17324 net.cpp:137] Memory required for data: 14249984
I0603 17:09:45.391696 17324 layer_factory.hpp:77] Creating layer pool1_pool1_0_split
I0603 17:09:45.391710 17324 net.cpp:84] Creating Layer pool1_pool1_0_split
I0603 17:09:45.391717 17324 net.cpp:406] pool1_pool1_0_split <- pool1
I0603 17:09:45.391726 17324 net.cpp:380] pool1_pool1_0_split -> pool1_pool1_0_split_0
I0603 17:09:45.391738 17324 net.cpp:380] pool1_pool1_0_split -> pool1_pool1_0_split_1
I0603 17:09:45.391779 17324 net.cpp:122] Setting up pool1_pool1_0_split
I0603 17:09:45.391795 17324 net.cpp:129] Top shape: 1 64 56 56 (200704)
I0603 17:09:45.391804 17324 net.cpp:129] Top shape: 1 64 56 56 (200704)
I0603 17:09:45.391811 17324 net.cpp:137] Memory required for data: 15855616
I0603 17:09:45.391819 17324 layer_factory.hpp:77] Creating layer res2a_branch1
I0603 17:09:45.391830 17324 net.cpp:84] Creating Layer res2a_branch1
I0603 17:09:45.391837 17324 net.cpp:406] res2a_branch1 <- pool1_pool1_0_split_0
I0603 17:09:45.391850 17324 net.cpp:380] res2a_branch1 -> res2a_branch1
I0603 17:09:45.392120 17324 net.cpp:122] Setting up res2a_branch1
I0603 17:09:45.392138 17324 net.cpp:129] Top shape: 1 256 56 56 (802816)
I0603 17:09:45.392144 17324 net.cpp:137] Memory required for data: 19066880
I0603 17:09:45.392155 17324 layer_factory.hpp:77] Creating layer bn2a_branch1
I0603 17:09:45.392169 17324 net.cpp:84] Creating Layer bn2a_branch1
I0603 17:09:45.392177 17324 net.cpp:406] bn2a_branch1 <- res2a_branch1
I0603 17:09:45.392187 17324 net.cpp:367] bn2a_branch1 -> res2a_branch1 (in-place)
I0603 17:09:45.392846 17324 net.cpp:122] Setting up bn2a_branch1
I0603 17:09:45.392864 17324 net.cpp:129] Top shape: 1 256 56 56 (802816)
I0603 17:09:45.392871 17324 net.cpp:137] Memory required for data: 22278144
I0603 17:09:45.392892 17324 layer_factory.hpp:77] Creating layer scale2a_branch1
I0603 17:09:45.392904 17324 net.cpp:84] Creating Layer scale2a_branch1
I0603 17:09:45.392911 17324 net.cpp:406] scale2a_branch1 <- res2a_branch1
I0603 17:09:45.392920 17324 net.cpp:367] scale2a_branch1 -> res2a_branch1 (in-place)
I0603 17:09:45.392971 17324 layer_factory.hpp:77] Creating layer scale2a_branch1
I0603 17:09:45.393098 17324 net.cpp:122] Setting up scale2a_branch1
I0603 17:09:45.393112 17324 net.cpp:129] Top shape: 1 256 56 56 (802816)
I0603 17:09:45.393120 17324 net.cpp:137] Memory required for data: 25489408
I0603 17:09:45.393131 17324 layer_factory.hpp:77] Creating layer res2a_branch2a
I0603 17:09:45.393146 17324 net.cpp:84] Creating Layer res2a_branch2a
I0603 17:09:45.393153 17324 net.cpp:406] res2a_branch2a <- pool1_pool1_0_split_1
I0603 17:09:45.393165 17324 net.cpp:380] res2a_branch2a -> res2a_branch2a
I0603 17:09:45.393354 17324 net.cpp:122] Setting up res2a_branch2a
I0603 17:09:45.393368 17324 net.cpp:129] Top shape: 1 64 56 56 (200704)
I0603 17:09:45.393375 17324 net.cpp:137] Memory required for data: 26292224
I0603 17:09:45.393385 17324 layer_factory.hpp:77] Creating layer bn2a_branch2a
I0603 17:09:45.393394 17324 net.cpp:84] Creating Layer bn2a_branch2a
I0603 17:09:45.393401 17324 net.cpp:406] bn2a_branch2a <- res2a_branch2a
I0603 17:09:45.393414 17324 net.cpp:367] bn2a_branch2a -> res2a_branch2a (in-place)
I0603 17:09:45.393606 17324 net.cpp:122] Setting up bn2a_branch2a
I0603 17:09:45.393621 17324 net.cpp:129] Top shape: 1 64 56 56 (200704)
I0603 17:09:45.393628 17324 net.cpp:137] Memory required for data: 27095040
I0603 17:09:45.393646 17324 layer_factory.hpp:77] Creating layer scale2a_branch2a
I0603 17:09:45.393658 17324 net.cpp:84] Creating Layer scale2a_branch2a
I0603 17:09:45.393666 17324 net.cpp:406] scale2a_branch2a <- res2a_branch2a
I0603 17:09:45.393676 17324 net.cpp:367] scale2a_branch2a -> res2a_branch2a (in-place)
I0603 17:09:45.393724 17324 layer_factory.hpp:77] Creating layer scale2a_branch2a
I0603 17:09:45.393864 17324 net.cpp:122] Setting up scale2a_branch2a
I0603 17:09:45.393875 17324 net.cpp:129] Top shape: 1 64 56 56 (200704)
I0603 17:09:45.393880 17324 net.cpp:137] Memory required for data: 27897856
I0603 17:09:45.393888 17324 layer_factory.hpp:77] Creating layer res2a_branch2a_relu
I0603 17:09:45.393898 17324 net.cpp:84] Creating Layer res2a_branch2a_relu
I0603 17:09:45.393903 17324 net.cpp:406] res2a_branch2a_relu <- res2a_branch2a
I0603 17:09:45.393909 17324 net.cpp:367] res2a_branch2a_relu -> res2a_branch2a (in-place)
I0603 17:09:45.393918 17324 net.cpp:122] Setting up res2a_branch2a_relu
I0603 17:09:45.393923 17324 net.cpp:129] Top shape: 1 64 56 56 (200704)
I0603 17:09:45.393929 17324 net.cpp:137] Memory required for data: 28700672
I0603 17:09:45.393934 17324 layer_factory.hpp:77] Creating layer res2a_branch2b
I0603 17:09:45.393944 17324 net.cpp:84] Creating Layer res2a_branch2b
I0603 17:09:45.393949 17324 net.cpp:406] res2a_branch2b <- res2a_branch2a
I0603 17:09:45.393957 17324 net.cpp:380] res2a_branch2b -> res2a_branch2b
I0603 17:09:45.394640 17324 net.cpp:122] Setting up res2a_branch2b
I0603 17:09:45.394659 17324 net.cpp:129] Top shape: 1 64 56 56 (200704)
I0603 17:09:45.394666 17324 net.cpp:137] Memory required for data: 29503488
I0603 17:09:45.394676 17324 layer_factory.hpp:77] Creating layer bn2a_branch2b
I0603 17:09:45.394690 17324 net.cpp:84] Creating Layer bn2a_branch2b
I0603 17:09:45.394697 17324 net.cpp:406] bn2a_branch2b <- res2a_branch2b
I0603 17:09:45.394707 17324 net.cpp:367] bn2a_branch2b -> res2a_branch2b (in-place)
I0603 17:09:45.394960 17324 net.cpp:122] Setting up bn2a_branch2b
I0603 17:09:45.394976 17324 net.cpp:129] Top shape: 1 64 56 56 (200704)
I0603 17:09:45.394984 17324 net.cpp:137] Memory required for data: 30306304
I0603 17:09:45.394997 17324 layer_factory.hpp:77] Creating layer scale2a_branch2b
I0603 17:09:45.395010 17324 net.cpp:84] Creating Layer scale2a_branch2b
I0603 17:09:45.395017 17324 net.cpp:406] scale2a_branch2b <- res2a_branch2b
I0603 17:09:45.395027 17324 net.cpp:367] scale2a_branch2b -> res2a_branch2b (in-place)
I0603 17:09:45.395079 17324 layer_factory.hpp:77] Creating layer scale2a_branch2b
I0603 17:09:45.395282 17324 net.cpp:122] Setting up scale2a_branch2b
I0603 17:09:45.395298 17324 net.cpp:129] Top shape: 1 64 56 56 (200704)
I0603 17:09:45.395304 17324 net.cpp:137] Memory required for data: 31109120
I0603 17:09:45.395316 17324 layer_factory.hpp:77] Creating layer res2a_branch2b_relu
I0603 17:09:45.395328 17324 net.cpp:84] Creating Layer res2a_branch2b_relu
I0603 17:09:45.395335 17324 net.cpp:406] res2a_branch2b_relu <- res2a_branch2b
I0603 17:09:45.395344 17324 net.cpp:367] res2a_branch2b_relu -> res2a_branch2b (in-place)
I0603 17:09:45.395354 17324 net.cpp:122] Setting up res2a_branch2b_relu
I0603 17:09:45.395364 17324 net.cpp:129] Top shape: 1 64 56 56 (200704)
I0603 17:09:45.395370 17324 net.cpp:137] Memory required for data: 31911936
I0603 17:09:45.395375 17324 layer_factory.hpp:77] Creating layer res2a_branch2c
I0603 17:09:45.395390 17324 net.cpp:84] Creating Layer res2a_branch2c
I0603 17:09:45.395397 17324 net.cpp:406] res2a_branch2c <- res2a_branch2b
I0603 17:09:45.395407 17324 net.cpp:380] res2a_branch2c -> res2a_branch2c
I0603 17:09:45.395589 17324 net.cpp:122] Setting up res2a_branch2c
I0603 17:09:45.395606 17324 net.cpp:129] Top shape: 1 256 56 56 (802816)
I0603 17:09:45.395612 17324 net.cpp:137] Memory required for data: 35123200
I0603 17:09:45.395622 17324 layer_factory.hpp:77] Creating layer bn2a_branch2c
I0603 17:09:45.395632 17324 net.cpp:84] Creating Layer bn2a_branch2c
I0603 17:09:45.395638 17324 net.cpp:406] bn2a_branch2c <- res2a_branch2c
I0603 17:09:45.395648 17324 net.cpp:367] bn2a_branch2c -> res2a_branch2c (in-place)
I0603 17:09:45.395841 17324 net.cpp:122] Setting up bn2a_branch2c
I0603 17:09:45.395855 17324 net.cpp:129] Top shape: 1 256 56 56 (802816)
I0603 17:09:45.395862 17324 net.cpp:137] Memory required for data: 38334464
I0603 17:09:45.395875 17324 layer_factory.hpp:77] Creating layer scale2a_branch2c
I0603 17:09:45.395890 17324 net.cpp:84] Creating Layer scale2a_branch2c
I0603 17:09:45.395898 17324 net.cpp:406] scale2a_branch2c <- res2a_branch2c
I0603 17:09:45.395908 17324 net.cpp:367] scale2a_branch2c -> res2a_branch2c (in-place)
I0603 17:09:45.395959 17324 layer_factory.hpp:77] Creating layer scale2a_branch2c
I0603 17:09:45.396073 17324 net.cpp:122] Setting up scale2a_branch2c
I0603 17:09:45.396095 17324 net.cpp:129] Top shape: 1 256 56 56 (802816)
I0603 17:09:45.396102 17324 net.cpp:137] Memory required for data: 41545728
I0603 17:09:45.396113 17324 layer_factory.hpp:77] Creating layer res2a
I0603 17:09:45.396122 17324 net.cpp:84] Creating Layer res2a
I0603 17:09:45.396129 17324 net.cpp:406] res2a <- res2a_branch1
I0603 17:09:45.396137 17324 net.cpp:406] res2a <- res2a_branch2c
I0603 17:09:45.396149 17324 net.cpp:380] res2a -> res2a
I0603 17:09:45.396181 17324 net.cpp:122] Setting up res2a
I0603 17:09:45.396193 17324 net.cpp:129] Top shape: 1 256 56 56 (802816)
I0603 17:09:45.396199 17324 net.cpp:137] Memory required for data: 44756992
I0603 17:09:45.396205 17324 layer_factory.hpp:77] Creating layer res2a_relu
I0603 17:09:45.396214 17324 net.cpp:84] Creating Layer res2a_relu
I0603 17:09:45.396220 17324 net.cpp:406] res2a_relu <- res2a
I0603 17:09:45.396229 17324 net.cpp:367] res2a_relu -> res2a (in-place)
I0603 17:09:45.396239 17324 net.cpp:122] Setting up res2a_relu
I0603 17:09:45.396255 17324 net.cpp:129] Top shape: 1 256 56 56 (802816)
I0603 17:09:45.396260 17324 net.cpp:137] Memory required for data: 47968256
I0603 17:09:45.396265 17324 layer_factory.hpp:77] Creating layer res2a_res2a_relu_0_split
I0603 17:09:45.396270 17324 net.cpp:84] Creating Layer res2a_res2a_relu_0_split
I0603 17:09:45.396275 17324 net.cpp:406] res2a_res2a_relu_0_split <- res2a
I0603 17:09:45.396284 17324 net.cpp:380] res2a_res2a_relu_0_split -> res2a_res2a_relu_0_split_0
I0603 17:09:45.396292 17324 net.cpp:380] res2a_res2a_relu_0_split -> res2a_res2a_relu_0_split_1
I0603 17:09:45.396325 17324 net.cpp:122] Setting up res2a_res2a_relu_0_split
I0603 17:09:45.396335 17324 net.cpp:129] Top shape: 1 256 56 56 (802816)
I0603 17:09:45.396342 17324 net.cpp:129] Top shape: 1 256 56 56 (802816)
I0603 17:09:45.396347 17324 net.cpp:137] Memory required for data: 54390784
I0603 17:09:45.396351 17324 layer_factory.hpp:77] Creating layer res2b_branch2a
I0603 17:09:45.396360 17324 net.cpp:84] Creating Layer res2b_branch2a
I0603 17:09:45.396365 17324 net.cpp:406] res2b_branch2a <- res2a_res2a_relu_0_split_0
I0603 17:09:45.396373 17324 net.cpp:380] res2b_branch2a -> res2b_branch2a
I0603 17:09:45.396514 17324 net.cpp:122] Setting up res2b_branch2a
I0603 17:09:45.396525 17324 net.cpp:129] Top shape: 1 64 56 56 (200704)
I0603 17:09:45.396530 17324 net.cpp:137] Memory required for data: 55193600
I0603 17:09:45.396536 17324 layer_factory.hpp:77] Creating layer bn2b_branch2a
I0603 17:09:45.396544 17324 net.cpp:84] Creating Layer bn2b_branch2a
I0603 17:09:45.396549 17324 net.cpp:406] bn2b_branch2a <- res2b_branch2a
I0603 17:09:45.396558 17324 net.cpp:367] bn2b_branch2a -> res2b_branch2a (in-place)
I0603 17:09:45.396700 17324 net.cpp:122] Setting up bn2b_branch2a
I0603 17:09:45.396710 17324 net.cpp:129] Top shape: 1 64 56 56 (200704)
I0603 17:09:45.396715 17324 net.cpp:137] Memory required for data: 55996416
I0603 17:09:45.396730 17324 layer_factory.hpp:77] Creating layer scale2b_branch2a
I0603 17:09:45.396741 17324 net.cpp:84] Creating Layer scale2b_branch2a
I0603 17:09:45.396749 17324 net.cpp:406] scale2b_branch2a <- res2b_branch2a
I0603 17:09:45.396755 17324 net.cpp:367] scale2b_branch2a -> res2b_branch2a (in-place)
I0603 17:09:45.396790 17324 layer_factory.hpp:77] Creating layer scale2b_branch2a
I0603 17:09:45.396890 17324 net.cpp:122] Setting up scale2b_branch2a
I0603 17:09:45.396900 17324 net.cpp:129] Top shape: 1 64 56 56 (200704)
I0603 17:09:45.396905 17324 net.cpp:137] Memory required for data: 56799232
I0603 17:09:45.396914 17324 layer_factory.hpp:77] Creating layer res2b_branch2a_relu
I0603 17:09:45.396921 17324 net.cpp:84] Creating Layer res2b_branch2a_relu
I0603 17:09:45.396926 17324 net.cpp:406] res2b_branch2a_relu <- res2b_branch2a
I0603 17:09:45.396934 17324 net.cpp:367] res2b_branch2a_relu -> res2b_branch2a (in-place)
I0603 17:09:45.396944 17324 net.cpp:122] Setting up res2b_branch2a_relu
I0603 17:09:45.396950 17324 net.cpp:129] Top shape: 1 64 56 56 (200704)
I0603 17:09:45.396955 17324 net.cpp:137] Memory required for data: 57602048
I0603 17:09:45.396960 17324 layer_factory.hpp:77] Creating layer res2b_branch2b
I0603 17:09:45.396970 17324 net.cpp:84] Creating Layer res2b_branch2b
I0603 17:09:45.396975 17324 net.cpp:406] res2b_branch2b <- res2b_branch2a
I0603 17:09:45.396983 17324 net.cpp:380] res2b_branch2b -> res2b_branch2b
I0603 17:09:45.397167 17324 net.cpp:122] Setting up res2b_branch2b
I0603 17:09:45.397183 17324 net.cpp:129] Top shape: 1 64 56 56 (200704)
I0603 17:09:45.397189 17324 net.cpp:137] Memory required for data: 58404864
I0603 17:09:45.397198 17324 layer_factory.hpp:77] Creating layer bn2b_branch2b
I0603 17:09:45.397210 17324 net.cpp:84] Creating Layer bn2b_branch2b
I0603 17:09:45.397217 17324 net.cpp:406] bn2b_branch2b <- res2b_branch2b
I0603 17:09:45.397227 17324 net.cpp:367] bn2b_branch2b -> res2b_branch2b (in-place)
I0603 17:09:45.397420 17324 net.cpp:122] Setting up bn2b_branch2b
I0603 17:09:45.397434 17324 net.cpp:129] Top shape: 1 64 56 56 (200704)
I0603 17:09:45.397441 17324 net.cpp:137] Memory required for data: 59207680
I0603 17:09:45.397456 17324 layer_factory.hpp:77] Creating layer scale2b_branch2b
I0603 17:09:45.397467 17324 net.cpp:84] Creating Layer scale2b_branch2b
I0603 17:09:45.397475 17324 net.cpp:406] scale2b_branch2b <- res2b_branch2b
I0603 17:09:45.397483 17324 net.cpp:367] scale2b_branch2b -> res2b_branch2b (in-place)
I0603 17:09:45.397577 17324 layer_factory.hpp:77] Creating layer scale2b_branch2b
I0603 17:09:45.397696 17324 net.cpp:122] Setting up scale2b_branch2b
I0603 17:09:45.397711 17324 net.cpp:129] Top shape: 1 64 56 56 (200704)
I0603 17:09:45.397717 17324 net.cpp:137] Memory required for data: 60010496
I0603 17:09:45.397728 17324 layer_factory.hpp:77] Creating layer res2b_branch2b_relu
I0603 17:09:45.397738 17324 net.cpp:84] Creating Layer res2b_branch2b_relu
I0603 17:09:45.397744 17324 net.cpp:406] res2b_branch2b_relu <- res2b_branch2b
I0603 17:09:45.397755 17324 net.cpp:367] res2b_branch2b_relu -> res2b_branch2b (in-place)
I0603 17:09:45.397768 17324 net.cpp:122] Setting up res2b_branch2b_relu
I0603 17:09:45.397779 17324 net.cpp:129] Top shape: 1 64 56 56 (200704)
I0603 17:09:45.397794 17324 net.cpp:137] Memory required for data: 60813312
I0603 17:09:45.397799 17324 layer_factory.hpp:77] Creating layer res2b_branch2c
I0603 17:09:45.397812 17324 net.cpp:84] Creating Layer res2b_branch2c
I0603 17:09:45.397819 17324 net.cpp:406] res2b_branch2c <- res2b_branch2b
I0603 17:09:45.397826 17324 net.cpp:380] res2b_branch2c -> res2b_branch2c
I0603 17:09:45.398011 17324 net.cpp:122] Setting up res2b_branch2c
I0603 17:09:45.398027 17324 net.cpp:129] Top shape: 1 256 56 56 (802816)
I0603 17:09:45.398033 17324 net.cpp:137] Memory required for data: 64024576
I0603 17:09:45.398042 17324 layer_factory.hpp:77] Creating layer bn2b_branch2c
I0603 17:09:45.398054 17324 net.cpp:84] Creating Layer bn2b_branch2c
I0603 17:09:45.398063 17324 net.cpp:406] bn2b_branch2c <- res2b_branch2c
I0603 17:09:45.398072 17324 net.cpp:367] bn2b_branch2c -> res2b_branch2c (in-place)
I0603 17:09:45.398262 17324 net.cpp:122] Setting up bn2b_branch2c
I0603 17:09:45.398275 17324 net.cpp:129] Top shape: 1 256 56 56 (802816)
I0603 17:09:45.398282 17324 net.cpp:137] Memory required for data: 67235840
I0603 17:09:45.398294 17324 layer_factory.hpp:77] Creating layer scale2b_branch2c
I0603 17:09:45.398308 17324 net.cpp:84] Creating Layer scale2b_branch2c
I0603 17:09:45.398315 17324 net.cpp:406] scale2b_branch2c <- res2b_branch2c
I0603 17:09:45.398325 17324 net.cpp:367] scale2b_branch2c -> res2b_branch2c (in-place)
I0603 17:09:45.398376 17324 layer_factory.hpp:77] Creating layer scale2b_branch2c
I0603 17:09:45.398484 17324 net.cpp:122] Setting up scale2b_branch2c
I0603 17:09:45.398495 17324 net.cpp:129] Top shape: 1 256 56 56 (802816)
I0603 17:09:45.398501 17324 net.cpp:137] Memory required for data: 70447104
I0603 17:09:45.398509 17324 layer_factory.hpp:77] Creating layer res2b
I0603 17:09:45.398517 17324 net.cpp:84] Creating Layer res2b
I0603 17:09:45.398525 17324 net.cpp:406] res2b <- res2a_res2a_relu_0_split_1
I0603 17:09:45.398532 17324 net.cpp:406] res2b <- res2b_branch2c
I0603 17:09:45.398550 17324 net.cpp:380] res2b -> res2b
I0603 17:09:45.398572 17324 net.cpp:122] Setting up res2b
I0603 17:09:45.398583 17324 net.cpp:129] Top shape: 1 256 56 56 (802816)
I0603 17:09:45.398588 17324 net.cpp:137] Memory required for data: 73658368
I0603 17:09:45.398593 17324 layer_factory.hpp:77] Creating layer res2b_relu
I0603 17:09:45.398600 17324 net.cpp:84] Creating Layer res2b_relu
I0603 17:09:45.398605 17324 net.cpp:406] res2b_relu <- res2b
I0603 17:09:45.398612 17324 net.cpp:367] res2b_relu -> res2b (in-place)
I0603 17:09:45.398619 17324 net.cpp:122] Setting up res2b_relu
I0603 17:09:45.398625 17324 net.cpp:129] Top shape: 1 256 56 56 (802816)
I0603 17:09:45.398630 17324 net.cpp:137] Memory required for data: 76869632
I0603 17:09:45.398635 17324 layer_factory.hpp:77] Creating layer res2b_res2b_relu_0_split
I0603 17:09:45.398643 17324 net.cpp:84] Creating Layer res2b_res2b_relu_0_split
I0603 17:09:45.398646 17324 net.cpp:406] res2b_res2b_relu_0_split <- res2b
I0603 17:09:45.398658 17324 net.cpp:380] res2b_res2b_relu_0_split -> res2b_res2b_relu_0_split_0
I0603 17:09:45.398669 17324 net.cpp:380] res2b_res2b_relu_0_split -> res2b_res2b_relu_0_split_1
I0603 17:09:45.398701 17324 net.cpp:122] Setting up res2b_res2b_relu_0_split
I0603 17:09:45.398711 17324 net.cpp:129] Top shape: 1 256 56 56 (802816)
I0603 17:09:45.398717 17324 net.cpp:129] Top shape: 1 256 56 56 (802816)
I0603 17:09:45.398722 17324 net.cpp:137] Memory required for data: 83292160
I0603 17:09:45.398727 17324 layer_factory.hpp:77] Creating layer res2c_branch2a
I0603 17:09:45.398736 17324 net.cpp:84] Creating Layer res2c_branch2a
I0603 17:09:45.398743 17324 net.cpp:406] res2c_branch2a <- res2b_res2b_relu_0_split_0
I0603 17:09:45.398751 17324 net.cpp:380] res2c_branch2a -> res2c_branch2a
I0603 17:09:45.398897 17324 net.cpp:122] Setting up res2c_branch2a
I0603 17:09:45.398908 17324 net.cpp:129] Top shape: 1 64 56 56 (200704)
I0603 17:09:45.398913 17324 net.cpp:137] Memory required for data: 84094976
I0603 17:09:45.398921 17324 layer_factory.hpp:77] Creating layer bn2c_branch2a
I0603 17:09:45.398928 17324 net.cpp:84] Creating Layer bn2c_branch2a
I0603 17:09:45.398933 17324 net.cpp:406] bn2c_branch2a <- res2c_branch2a
I0603 17:09:45.398941 17324 net.cpp:367] bn2c_branch2a -> res2c_branch2a (in-place)
I0603 17:09:45.399128 17324 net.cpp:122] Setting up bn2c_branch2a
I0603 17:09:45.399140 17324 net.cpp:129] Top shape: 1 64 56 56 (200704)
I0603 17:09:45.399150 17324 net.cpp:137] Memory required for data: 84897792
I0603 17:09:45.399161 17324 layer_factory.hpp:77] Creating layer scale2c_branch2a
I0603 17:09:45.399169 17324 net.cpp:84] Creating Layer scale2c_branch2a
I0603 17:09:45.399174 17324 net.cpp:406] scale2c_branch2a <- res2c_branch2a
I0603 17:09:45.399184 17324 net.cpp:367] scale2c_branch2a -> res2c_branch2a (in-place)
I0603 17:09:45.399220 17324 layer_factory.hpp:77] Creating layer scale2c_branch2a
I0603 17:09:45.399346 17324 net.cpp:122] Setting up scale2c_branch2a
I0603 17:09:45.399360 17324 net.cpp:129] Top shape: 1 64 56 56 (200704)
I0603 17:09:45.399368 17324 net.cpp:137] Memory required for data: 85700608
I0603 17:09:45.399379 17324 layer_factory.hpp:77] Creating layer res2c_branch2a_relu
I0603 17:09:45.399389 17324 net.cpp:84] Creating Layer res2c_branch2a_relu
I0603 17:09:45.399394 17324 net.cpp:406] res2c_branch2a_relu <- res2c_branch2a
I0603 17:09:45.399405 17324 net.cpp:367] res2c_branch2a_relu -> res2c_branch2a (in-place)
I0603 17:09:45.399416 17324 net.cpp:122] Setting up res2c_branch2a_relu
I0603 17:09:45.399427 17324 net.cpp:129] Top shape: 1 64 56 56 (200704)
I0603 17:09:45.399433 17324 net.cpp:137] Memory required for data: 86503424
I0603 17:09:45.399441 17324 layer_factory.hpp:77] Creating layer res2c_branch2b
I0603 17:09:45.399454 17324 net.cpp:84] Creating Layer res2c_branch2b
I0603 17:09:45.399471 17324 net.cpp:406] res2c_branch2b <- res2c_branch2a
I0603 17:09:45.399478 17324 net.cpp:380] res2c_branch2b -> res2c_branch2b
I0603 17:09:45.399672 17324 net.cpp:122] Setting up res2c_branch2b
I0603 17:09:45.399686 17324 net.cpp:129] Top shape: 1 64 56 56 (200704)
I0603 17:09:45.399693 17324 net.cpp:137] Memory required for data: 87306240
I0603 17:09:45.399703 17324 layer_factory.hpp:77] Creating layer bn2c_branch2b
I0603 17:09:45.399711 17324 net.cpp:84] Creating Layer bn2c_branch2b
I0603 17:09:45.399718 17324 net.cpp:406] bn2c_branch2b <- res2c_branch2b
I0603 17:09:45.399730 17324 net.cpp:367] bn2c_branch2b -> res2c_branch2b (in-place)
I0603 17:09:45.399938 17324 net.cpp:122] Setting up bn2c_branch2b
I0603 17:09:45.399953 17324 net.cpp:129] Top shape: 1 64 56 56 (200704)
I0603 17:09:45.399960 17324 net.cpp:137] Memory required for data: 88109056
I0603 17:09:45.399972 17324 layer_factory.hpp:77] Creating layer scale2c_branch2b
I0603 17:09:45.399984 17324 net.cpp:84] Creating Layer scale2c_branch2b
I0603 17:09:45.399991 17324 net.cpp:406] scale2c_branch2b <- res2c_branch2b
I0603 17:09:45.400003 17324 net.cpp:367] scale2c_branch2b -> res2c_branch2b (in-place)
I0603 17:09:45.400058 17324 layer_factory.hpp:77] Creating layer scale2c_branch2b
I0603 17:09:45.400187 17324 net.cpp:122] Setting up scale2c_branch2b
I0603 17:09:45.400202 17324 net.cpp:129] Top shape: 1 64 56 56 (200704)
I0603 17:09:45.400208 17324 net.cpp:137] Memory required for data: 88911872
I0603 17:09:45.400219 17324 layer_factory.hpp:77] Creating layer res2c_branch2b_relu
I0603 17:09:45.400228 17324 net.cpp:84] Creating Layer res2c_branch2b_relu
I0603 17:09:45.400235 17324 net.cpp:406] res2c_branch2b_relu <- res2c_branch2b
I0603 17:09:45.400246 17324 net.cpp:367] res2c_branch2b_relu -> res2c_branch2b (in-place)
I0603 17:09:45.400259 17324 net.cpp:122] Setting up res2c_branch2b_relu
I0603 17:09:45.400269 17324 net.cpp:129] Top shape: 1 64 56 56 (200704)
I0603 17:09:45.400277 17324 net.cpp:137] Memory required for data: 89714688
I0603 17:09:45.400283 17324 layer_factory.hpp:77] Creating layer res2c_branch2c
I0603 17:09:45.400303 17324 net.cpp:84] Creating Layer res2c_branch2c
I0603 17:09:45.400310 17324 net.cpp:406] res2c_branch2c <- res2c_branch2b
I0603 17:09:45.400317 17324 net.cpp:380] res2c_branch2c -> res2c_branch2c
I0603 17:09:45.400480 17324 net.cpp:122] Setting up res2c_branch2c
I0603 17:09:45.400492 17324 net.cpp:129] Top shape: 1 256 56 56 (802816)
I0603 17:09:45.400497 17324 net.cpp:137] Memory required for data: 92925952
I0603 17:09:45.400506 17324 layer_factory.hpp:77] Creating layer bn2c_branch2c
I0603 17:09:45.400512 17324 net.cpp:84] Creating Layer bn2c_branch2c
I0603 17:09:45.400518 17324 net.cpp:406] bn2c_branch2c <- res2c_branch2c
I0603 17:09:45.400526 17324 net.cpp:367] bn2c_branch2c -> res2c_branch2c (in-place)
I0603 17:09:45.400710 17324 net.cpp:122] Setting up bn2c_branch2c
I0603 17:09:45.400724 17324 net.cpp:129] Top shape: 1 256 56 56 (802816)
I0603 17:09:45.400730 17324 net.cpp:137] Memory required for data: 96137216
I0603 17:09:45.400754 17324 layer_factory.hpp:77] Creating layer scale2c_branch2c
I0603 17:09:45.400768 17324 net.cpp:84] Creating Layer scale2c_branch2c
I0603 17:09:45.400775 17324 net.cpp:406] scale2c_branch2c <- res2c_branch2c
I0603 17:09:45.400785 17324 net.cpp:367] scale2c_branch2c -> res2c_branch2c (in-place)
I0603 17:09:45.400837 17324 layer_factory.hpp:77] Creating layer scale2c_branch2c
I0603 17:09:45.400945 17324 net.cpp:122] Setting up scale2c_branch2c
I0603 17:09:45.400956 17324 net.cpp:129] Top shape: 1 256 56 56 (802816)
I0603 17:09:45.400961 17324 net.cpp:137] Memory required for data: 99348480
I0603 17:09:45.400970 17324 layer_factory.hpp:77] Creating layer res2c
I0603 17:09:45.400980 17324 net.cpp:84] Creating Layer res2c
I0603 17:09:45.400987 17324 net.cpp:406] res2c <- res2b_res2b_relu_0_split_1
I0603 17:09:45.401002 17324 net.cpp:406] res2c <- res2c_branch2c
I0603 17:09:45.401010 17324 net.cpp:380] res2c -> res2c
I0603 17:09:45.401033 17324 net.cpp:122] Setting up res2c
I0603 17:09:45.401042 17324 net.cpp:129] Top shape: 1 256 56 56 (802816)
I0603 17:09:45.401047 17324 net.cpp:137] Memory required for data: 102559744
I0603 17:09:45.401052 17324 layer_factory.hpp:77] Creating layer res2c_relu
I0603 17:09:45.401059 17324 net.cpp:84] Creating Layer res2c_relu
I0603 17:09:45.401064 17324 net.cpp:406] res2c_relu <- res2c
I0603 17:09:45.401072 17324 net.cpp:367] res2c_relu -> res2c (in-place)
I0603 17:09:45.401080 17324 net.cpp:122] Setting up res2c_relu
I0603 17:09:45.401088 17324 net.cpp:129] Top shape: 1 256 56 56 (802816)
I0603 17:09:45.401093 17324 net.cpp:137] Memory required for data: 105771008
I0603 17:09:45.401098 17324 layer_factory.hpp:77] Creating layer res2c_res2c_relu_0_split
I0603 17:09:45.401105 17324 net.cpp:84] Creating Layer res2c_res2c_relu_0_split
I0603 17:09:45.401109 17324 net.cpp:406] res2c_res2c_relu_0_split <- res2c
I0603 17:09:45.401116 17324 net.cpp:380] res2c_res2c_relu_0_split -> res2c_res2c_relu_0_split_0
I0603 17:09:45.401124 17324 net.cpp:380] res2c_res2c_relu_0_split -> res2c_res2c_relu_0_split_1
I0603 17:09:45.401154 17324 net.cpp:122] Setting up res2c_res2c_relu_0_split
I0603 17:09:45.401165 17324 net.cpp:129] Top shape: 1 256 56 56 (802816)
I0603 17:09:45.401170 17324 net.cpp:129] Top shape: 1 256 56 56 (802816)
I0603 17:09:45.401175 17324 net.cpp:137] Memory required for data: 112193536
I0603 17:09:45.401180 17324 layer_factory.hpp:77] Creating layer res3a_branch1
I0603 17:09:45.401188 17324 net.cpp:84] Creating Layer res3a_branch1
I0603 17:09:45.401193 17324 net.cpp:406] res3a_branch1 <- res2c_res2c_relu_0_split_0
I0603 17:09:45.401202 17324 net.cpp:380] res3a_branch1 -> res3a_branch1
I0603 17:09:45.401985 17324 net.cpp:122] Setting up res3a_branch1
I0603 17:09:45.402005 17324 net.cpp:129] Top shape: 1 512 28 28 (401408)
I0603 17:09:45.402012 17324 net.cpp:137] Memory required for data: 113799168
I0603 17:09:45.402021 17324 layer_factory.hpp:77] Creating layer bn3a_branch1
I0603 17:09:45.402032 17324 net.cpp:84] Creating Layer bn3a_branch1
I0603 17:09:45.402041 17324 net.cpp:406] bn3a_branch1 <- res3a_branch1
I0603 17:09:45.402050 17324 net.cpp:367] bn3a_branch1 -> res3a_branch1 (in-place)
I0603 17:09:45.402707 17324 net.cpp:122] Setting up bn3a_branch1
I0603 17:09:45.402725 17324 net.cpp:129] Top shape: 1 512 28 28 (401408)
I0603 17:09:45.402732 17324 net.cpp:137] Memory required for data: 115404800
I0603 17:09:45.402746 17324 layer_factory.hpp:77] Creating layer scale3a_branch1
I0603 17:09:45.402760 17324 net.cpp:84] Creating Layer scale3a_branch1
I0603 17:09:45.402770 17324 net.cpp:406] scale3a_branch1 <- res3a_branch1
I0603 17:09:45.402779 17324 net.cpp:367] scale3a_branch1 -> res3a_branch1 (in-place)
I0603 17:09:45.402840 17324 layer_factory.hpp:77] Creating layer scale3a_branch1
I0603 17:09:45.402957 17324 net.cpp:122] Setting up scale3a_branch1
I0603 17:09:45.402972 17324 net.cpp:129] Top shape: 1 512 28 28 (401408)
I0603 17:09:45.402978 17324 net.cpp:137] Memory required for data: 117010432
I0603 17:09:45.402989 17324 layer_factory.hpp:77] Creating layer res3a_branch2a
I0603 17:09:45.403003 17324 net.cpp:84] Creating Layer res3a_branch2a
I0603 17:09:45.403012 17324 net.cpp:406] res3a_branch2a <- res2c_res2c_relu_0_split_1
I0603 17:09:45.403023 17324 net.cpp:380] res3a_branch2a -> res3a_branch2a
I0603 17:09:45.403252 17324 net.cpp:122] Setting up res3a_branch2a
I0603 17:09:45.403268 17324 net.cpp:129] Top shape: 1 128 28 28 (100352)
I0603 17:09:45.403275 17324 net.cpp:137] Memory required for data: 117411840
I0603 17:09:45.403285 17324 layer_factory.hpp:77] Creating layer bn3a_branch2a
I0603 17:09:45.403295 17324 net.cpp:84] Creating Layer bn3a_branch2a
I0603 17:09:45.403301 17324 net.cpp:406] bn3a_branch2a <- res3a_branch2a
I0603 17:09:45.403313 17324 net.cpp:367] bn3a_branch2a -> res3a_branch2a (in-place)
I0603 17:09:45.403508 17324 net.cpp:122] Setting up bn3a_branch2a
I0603 17:09:45.403522 17324 net.cpp:129] Top shape: 1 128 28 28 (100352)
I0603 17:09:45.403529 17324 net.cpp:137] Memory required for data: 117813248
I0603 17:09:45.403542 17324 layer_factory.hpp:77] Creating layer scale3a_branch2a
I0603 17:09:45.403553 17324 net.cpp:84] Creating Layer scale3a_branch2a
I0603 17:09:45.403558 17324 net.cpp:406] scale3a_branch2a <- res3a_branch2a
I0603 17:09:45.403568 17324 net.cpp:367] scale3a_branch2a -> res3a_branch2a (in-place)
I0603 17:09:45.403662 17324 layer_factory.hpp:77] Creating layer scale3a_branch2a
I0603 17:09:45.403800 17324 net.cpp:122] Setting up scale3a_branch2a
I0603 17:09:45.403817 17324 net.cpp:129] Top shape: 1 128 28 28 (100352)
I0603 17:09:45.403823 17324 net.cpp:137] Memory required for data: 118214656
I0603 17:09:45.403836 17324 layer_factory.hpp:77] Creating layer res3a_branch2a_relu
I0603 17:09:45.403846 17324 net.cpp:84] Creating Layer res3a_branch2a_relu
I0603 17:09:45.403854 17324 net.cpp:406] res3a_branch2a_relu <- res3a_branch2a
I0603 17:09:45.403862 17324 net.cpp:367] res3a_branch2a_relu -> res3a_branch2a (in-place)
I0603 17:09:45.403882 17324 net.cpp:122] Setting up res3a_branch2a_relu
I0603 17:09:45.403889 17324 net.cpp:129] Top shape: 1 128 28 28 (100352)
I0603 17:09:45.403894 17324 net.cpp:137] Memory required for data: 118616064
I0603 17:09:45.403899 17324 layer_factory.hpp:77] Creating layer res3a_branch2b
I0603 17:09:45.403911 17324 net.cpp:84] Creating Layer res3a_branch2b
I0603 17:09:45.403926 17324 net.cpp:406] res3a_branch2b <- res3a_branch2a
I0603 17:09:45.403934 17324 net.cpp:380] res3a_branch2b -> res3a_branch2b
I0603 17:09:45.404577 17324 net.cpp:122] Setting up res3a_branch2b
I0603 17:09:45.404592 17324 net.cpp:129] Top shape: 1 128 28 28 (100352)
I0603 17:09:45.404598 17324 net.cpp:137] Memory required for data: 119017472
I0603 17:09:45.404606 17324 layer_factory.hpp:77] Creating layer bn3a_branch2b
I0603 17:09:45.404614 17324 net.cpp:84] Creating Layer bn3a_branch2b
I0603 17:09:45.404620 17324 net.cpp:406] bn3a_branch2b <- res3a_branch2b
I0603 17:09:45.404629 17324 net.cpp:367] bn3a_branch2b -> res3a_branch2b (in-place)
I0603 17:09:45.404826 17324 net.cpp:122] Setting up bn3a_branch2b
I0603 17:09:45.404841 17324 net.cpp:129] Top shape: 1 128 28 28 (100352)
I0603 17:09:45.404848 17324 net.cpp:137] Memory required for data: 119418880
I0603 17:09:45.404861 17324 layer_factory.hpp:77] Creating layer scale3a_branch2b
I0603 17:09:45.404872 17324 net.cpp:84] Creating Layer scale3a_branch2b
I0603 17:09:45.404878 17324 net.cpp:406] scale3a_branch2b <- res3a_branch2b
I0603 17:09:45.404888 17324 net.cpp:367] scale3a_branch2b -> res3a_branch2b (in-place)
I0603 17:09:45.404937 17324 layer_factory.hpp:77] Creating layer scale3a_branch2b
I0603 17:09:45.405066 17324 net.cpp:122] Setting up scale3a_branch2b
I0603 17:09:45.405081 17324 net.cpp:129] Top shape: 1 128 28 28 (100352)
I0603 17:09:45.405125 17324 net.cpp:137] Memory required for data: 119820288
I0603 17:09:45.405143 17324 layer_factory.hpp:77] Creating layer res3a_branch2b_relu
I0603 17:09:45.405154 17324 net.cpp:84] Creating Layer res3a_branch2b_relu
I0603 17:09:45.405161 17324 net.cpp:406] res3a_branch2b_relu <- res3a_branch2b
I0603 17:09:45.405174 17324 net.cpp:367] res3a_branch2b_relu -> res3a_branch2b (in-place)
I0603 17:09:45.405184 17324 net.cpp:122] Setting up res3a_branch2b_relu
I0603 17:09:45.405200 17324 net.cpp:129] Top shape: 1 128 28 28 (100352)
I0603 17:09:45.405205 17324 net.cpp:137] Memory required for data: 120221696
I0603 17:09:45.405210 17324 layer_factory.hpp:77] Creating layer res3a_branch2c
I0603 17:09:45.405220 17324 net.cpp:84] Creating Layer res3a_branch2c
I0603 17:09:45.405225 17324 net.cpp:406] res3a_branch2c <- res3a_branch2b
I0603 17:09:45.405233 17324 net.cpp:380] res3a_branch2c -> res3a_branch2c
I0603 17:09:45.405452 17324 net.cpp:122] Setting up res3a_branch2c
I0603 17:09:45.405467 17324 net.cpp:129] Top shape: 1 512 28 28 (401408)
I0603 17:09:45.405473 17324 net.cpp:137] Memory required for data: 121827328
I0603 17:09:45.405483 17324 layer_factory.hpp:77] Creating layer bn3a_branch2c
I0603 17:09:45.405501 17324 net.cpp:84] Creating Layer bn3a_branch2c
I0603 17:09:45.405511 17324 net.cpp:406] bn3a_branch2c <- res3a_branch2c
I0603 17:09:45.405520 17324 net.cpp:367] bn3a_branch2c -> res3a_branch2c (in-place)
I0603 17:09:45.405720 17324 net.cpp:122] Setting up bn3a_branch2c
I0603 17:09:45.405735 17324 net.cpp:129] Top shape: 1 512 28 28 (401408)
I0603 17:09:45.405741 17324 net.cpp:137] Memory required for data: 123432960
I0603 17:09:45.405757 17324 layer_factory.hpp:77] Creating layer scale3a_branch2c
I0603 17:09:45.405769 17324 net.cpp:84] Creating Layer scale3a_branch2c
I0603 17:09:45.405776 17324 net.cpp:406] scale3a_branch2c <- res3a_branch2c
I0603 17:09:45.405786 17324 net.cpp:367] scale3a_branch2c -> res3a_branch2c (in-place)
I0603 17:09:45.405841 17324 layer_factory.hpp:77] Creating layer scale3a_branch2c
I0603 17:09:45.405961 17324 net.cpp:122] Setting up scale3a_branch2c
I0603 17:09:45.405975 17324 net.cpp:129] Top shape: 1 512 28 28 (401408)
I0603 17:09:45.405982 17324 net.cpp:137] Memory required for data: 125038592
I0603 17:09:45.405992 17324 layer_factory.hpp:77] Creating layer res3a
I0603 17:09:45.406007 17324 net.cpp:84] Creating Layer res3a
I0603 17:09:45.406016 17324 net.cpp:406] res3a <- res3a_branch1
I0603 17:09:45.406024 17324 net.cpp:406] res3a <- res3a_branch2c
I0603 17:09:45.406033 17324 net.cpp:380] res3a -> res3a
I0603 17:09:45.406065 17324 net.cpp:122] Setting up res3a
I0603 17:09:45.406085 17324 net.cpp:129] Top shape: 1 512 28 28 (401408)
I0603 17:09:45.406090 17324 net.cpp:137] Memory required for data: 126644224
I0603 17:09:45.406095 17324 layer_factory.hpp:77] Creating layer res3a_relu
I0603 17:09:45.406101 17324 net.cpp:84] Creating Layer res3a_relu
I0603 17:09:45.406106 17324 net.cpp:406] res3a_relu <- res3a
I0603 17:09:45.406116 17324 net.cpp:367] res3a_relu -> res3a (in-place)
I0603 17:09:45.406124 17324 net.cpp:122] Setting up res3a_relu
I0603 17:09:45.406132 17324 net.cpp:129] Top shape: 1 512 28 28 (401408)
I0603 17:09:45.406137 17324 net.cpp:137] Memory required for data: 128249856
I0603 17:09:45.406142 17324 layer_factory.hpp:77] Creating layer res3a_res3a_relu_0_split
I0603 17:09:45.406149 17324 net.cpp:84] Creating Layer res3a_res3a_relu_0_split
I0603 17:09:45.406154 17324 net.cpp:406] res3a_res3a_relu_0_split <- res3a
I0603 17:09:45.406162 17324 net.cpp:380] res3a_res3a_relu_0_split -> res3a_res3a_relu_0_split_0
I0603 17:09:45.406169 17324 net.cpp:380] res3a_res3a_relu_0_split -> res3a_res3a_relu_0_split_1
I0603 17:09:45.406203 17324 net.cpp:122] Setting up res3a_res3a_relu_0_split
I0603 17:09:45.406213 17324 net.cpp:129] Top shape: 1 512 28 28 (401408)
I0603 17:09:45.406219 17324 net.cpp:129] Top shape: 1 512 28 28 (401408)
I0603 17:09:45.406224 17324 net.cpp:137] Memory required for data: 131461120
I0603 17:09:45.406229 17324 layer_factory.hpp:77] Creating layer res3b_branch2a
I0603 17:09:45.406237 17324 net.cpp:84] Creating Layer res3b_branch2a
I0603 17:09:45.406244 17324 net.cpp:406] res3b_branch2a <- res3a_res3a_relu_0_split_0
I0603 17:09:45.406252 17324 net.cpp:380] res3b_branch2a -> res3b_branch2a
I0603 17:09:45.406882 17324 net.cpp:122] Setting up res3b_branch2a
I0603 17:09:45.406896 17324 net.cpp:129] Top shape: 1 128 28 28 (100352)
I0603 17:09:45.406903 17324 net.cpp:137] Memory required for data: 131862528
I0603 17:09:45.406910 17324 layer_factory.hpp:77] Creating layer bn3b_branch2a
I0603 17:09:45.406919 17324 net.cpp:84] Creating Layer bn3b_branch2a
I0603 17:09:45.406925 17324 net.cpp:406] bn3b_branch2a <- res3b_branch2a
I0603 17:09:45.406934 17324 net.cpp:367] bn3b_branch2a -> res3b_branch2a (in-place)
I0603 17:09:45.407102 17324 net.cpp:122] Setting up bn3b_branch2a
I0603 17:09:45.407114 17324 net.cpp:129] Top shape: 1 128 28 28 (100352)
I0603 17:09:45.407119 17324 net.cpp:137] Memory required for data: 132263936
I0603 17:09:45.407130 17324 layer_factory.hpp:77] Creating layer scale3b_branch2a
I0603 17:09:45.407142 17324 net.cpp:84] Creating Layer scale3b_branch2a
I0603 17:09:45.407158 17324 net.cpp:406] scale3b_branch2a <- res3b_branch2a
I0603 17:09:45.407174 17324 net.cpp:367] scale3b_branch2a -> res3b_branch2a (in-place)
I0603 17:09:45.407212 17324 layer_factory.hpp:77] Creating layer scale3b_branch2a
I0603 17:09:45.407321 17324 net.cpp:122] Setting up scale3b_branch2a
I0603 17:09:45.407333 17324 net.cpp:129] Top shape: 1 128 28 28 (100352)
I0603 17:09:45.407338 17324 net.cpp:137] Memory required for data: 132665344
I0603 17:09:45.407347 17324 layer_factory.hpp:77] Creating layer res3b_branch2a_relu
I0603 17:09:45.407356 17324 net.cpp:84] Creating Layer res3b_branch2a_relu
I0603 17:09:45.407362 17324 net.cpp:406] res3b_branch2a_relu <- res3b_branch2a
I0603 17:09:45.407379 17324 net.cpp:367] res3b_branch2a_relu -> res3b_branch2a (in-place)
I0603 17:09:45.407389 17324 net.cpp:122] Setting up res3b_branch2a_relu
I0603 17:09:45.407397 17324 net.cpp:129] Top shape: 1 128 28 28 (100352)
I0603 17:09:45.407402 17324 net.cpp:137] Memory required for data: 133066752
I0603 17:09:45.407407 17324 layer_factory.hpp:77] Creating layer res3b_branch2b
I0603 17:09:45.407418 17324 net.cpp:84] Creating Layer res3b_branch2b
I0603 17:09:45.407425 17324 net.cpp:406] res3b_branch2b <- res3b_branch2a
I0603 17:09:45.407433 17324 net.cpp:380] res3b_branch2b -> res3b_branch2b
I0603 17:09:45.408074 17324 net.cpp:122] Setting up res3b_branch2b
I0603 17:09:45.408089 17324 net.cpp:129] Top shape: 1 128 28 28 (100352)
I0603 17:09:45.408095 17324 net.cpp:137] Memory required for data: 133468160
I0603 17:09:45.408102 17324 layer_factory.hpp:77] Creating layer bn3b_branch2b
I0603 17:09:45.408112 17324 net.cpp:84] Creating Layer bn3b_branch2b
I0603 17:09:45.408118 17324 net.cpp:406] bn3b_branch2b <- res3b_branch2b
I0603 17:09:45.408134 17324 net.cpp:367] bn3b_branch2b -> res3b_branch2b (in-place)
I0603 17:09:45.408299 17324 net.cpp:122] Setting up bn3b_branch2b
I0603 17:09:45.408311 17324 net.cpp:129] Top shape: 1 128 28 28 (100352)
I0603 17:09:45.408316 17324 net.cpp:137] Memory required for data: 133869568
I0603 17:09:45.408331 17324 layer_factory.hpp:77] Creating layer scale3b_branch2b
I0603 17:09:45.408341 17324 net.cpp:84] Creating Layer scale3b_branch2b
I0603 17:09:45.408349 17324 net.cpp:406] scale3b_branch2b <- res3b_branch2b
I0603 17:09:45.408357 17324 net.cpp:367] scale3b_branch2b -> res3b_branch2b (in-place)
I0603 17:09:45.408403 17324 layer_factory.hpp:77] Creating layer scale3b_branch2b
I0603 17:09:45.408511 17324 net.cpp:122] Setting up scale3b_branch2b
I0603 17:09:45.408524 17324 net.cpp:129] Top shape: 1 128 28 28 (100352)
I0603 17:09:45.408529 17324 net.cpp:137] Memory required for data: 134270976
I0603 17:09:45.408537 17324 layer_factory.hpp:77] Creating layer res3b_branch2b_relu
I0603 17:09:45.408547 17324 net.cpp:84] Creating Layer res3b_branch2b_relu
I0603 17:09:45.408555 17324 net.cpp:406] res3b_branch2b_relu <- res3b_branch2b
I0603 17:09:45.408561 17324 net.cpp:367] res3b_branch2b_relu -> res3b_branch2b (in-place)
I0603 17:09:45.408571 17324 net.cpp:122] Setting up res3b_branch2b_relu
I0603 17:09:45.408579 17324 net.cpp:129] Top shape: 1 128 28 28 (100352)
I0603 17:09:45.408593 17324 net.cpp:137] Memory required for data: 134672384
I0603 17:09:45.408598 17324 layer_factory.hpp:77] Creating layer res3b_branch2c
I0603 17:09:45.408609 17324 net.cpp:84] Creating Layer res3b_branch2c
I0603 17:09:45.408615 17324 net.cpp:406] res3b_branch2c <- res3b_branch2b
I0603 17:09:45.408623 17324 net.cpp:380] res3b_branch2c -> res3b_branch2c
I0603 17:09:45.408816 17324 net.cpp:122] Setting up res3b_branch2c
I0603 17:09:45.408828 17324 net.cpp:129] Top shape: 1 512 28 28 (401408)
I0603 17:09:45.408834 17324 net.cpp:137] Memory required for data: 136278016
I0603 17:09:45.408841 17324 layer_factory.hpp:77] Creating layer bn3b_branch2c
I0603 17:09:45.408849 17324 net.cpp:84] Creating Layer bn3b_branch2c
I0603 17:09:45.408855 17324 net.cpp:406] bn3b_branch2c <- res3b_branch2c
I0603 17:09:45.408864 17324 net.cpp:367] bn3b_branch2c -> res3b_branch2c (in-place)
I0603 17:09:45.409049 17324 net.cpp:122] Setting up bn3b_branch2c
I0603 17:09:45.409061 17324 net.cpp:129] Top shape: 1 512 28 28 (401408)
I0603 17:09:45.409067 17324 net.cpp:137] Memory required for data: 137883648
I0603 17:09:45.409080 17324 layer_factory.hpp:77] Creating layer scale3b_branch2c
I0603 17:09:45.409090 17324 net.cpp:84] Creating Layer scale3b_branch2c
I0603 17:09:45.409096 17324 net.cpp:406] scale3b_branch2c <- res3b_branch2c
I0603 17:09:45.409104 17324 net.cpp:367] scale3b_branch2c -> res3b_branch2c (in-place)
I0603 17:09:45.409157 17324 layer_factory.hpp:77] Creating layer scale3b_branch2c
I0603 17:09:45.409263 17324 net.cpp:122] Setting up scale3b_branch2c
I0603 17:09:45.409276 17324 net.cpp:129] Top shape: 1 512 28 28 (401408)
I0603 17:09:45.409281 17324 net.cpp:137] Memory required for data: 139489280
I0603 17:09:45.409289 17324 layer_factory.hpp:77] Creating layer res3b
I0603 17:09:45.409297 17324 net.cpp:84] Creating Layer res3b
I0603 17:09:45.409307 17324 net.cpp:406] res3b <- res3a_res3a_relu_0_split_1
I0603 17:09:45.409313 17324 net.cpp:406] res3b <- res3b_branch2c
I0603 17:09:45.409320 17324 net.cpp:380] res3b -> res3b
I0603 17:09:45.409353 17324 net.cpp:122] Setting up res3b
I0603 17:09:45.409361 17324 net.cpp:129] Top shape: 1 512 28 28 (401408)
I0603 17:09:45.409366 17324 net.cpp:137] Memory required for data: 141094912
I0603 17:09:45.409373 17324 layer_factory.hpp:77] Creating layer res3b_relu
I0603 17:09:45.409380 17324 net.cpp:84] Creating Layer res3b_relu
I0603 17:09:45.409389 17324 net.cpp:406] res3b_relu <- res3b
I0603 17:09:45.409395 17324 net.cpp:367] res3b_relu -> res3b (in-place)
I0603 17:09:45.409402 17324 net.cpp:122] Setting up res3b_relu
I0603 17:09:45.409410 17324 net.cpp:129] Top shape: 1 512 28 28 (401408)
I0603 17:09:45.409415 17324 net.cpp:137] Memory required for data: 142700544
I0603 17:09:45.409420 17324 layer_factory.hpp:77] Creating layer res3b_res3b_relu_0_split
I0603 17:09:45.409430 17324 net.cpp:84] Creating Layer res3b_res3b_relu_0_split
I0603 17:09:45.409435 17324 net.cpp:406] res3b_res3b_relu_0_split <- res3b
I0603 17:09:45.409441 17324 net.cpp:380] res3b_res3b_relu_0_split -> res3b_res3b_relu_0_split_0
I0603 17:09:45.409449 17324 net.cpp:380] res3b_res3b_relu_0_split -> res3b_res3b_relu_0_split_1
I0603 17:09:45.409483 17324 net.cpp:122] Setting up res3b_res3b_relu_0_split
I0603 17:09:45.409493 17324 net.cpp:129] Top shape: 1 512 28 28 (401408)
I0603 17:09:45.409499 17324 net.cpp:129] Top shape: 1 512 28 28 (401408)
I0603 17:09:45.409504 17324 net.cpp:137] Memory required for data: 145911808
I0603 17:09:45.409535 17324 layer_factory.hpp:77] Creating layer res3c_branch2a
I0603 17:09:45.409546 17324 net.cpp:84] Creating Layer res3c_branch2a
I0603 17:09:45.409553 17324 net.cpp:406] res3c_branch2a <- res3b_res3b_relu_0_split_0
I0603 17:09:45.409564 17324 net.cpp:380] res3c_branch2a -> res3c_branch2a
I0603 17:09:45.409787 17324 net.cpp:122] Setting up res3c_branch2a
I0603 17:09:45.409801 17324 net.cpp:129] Top shape: 1 128 28 28 (100352)
I0603 17:09:45.409806 17324 net.cpp:137] Memory required for data: 146313216
I0603 17:09:45.409813 17324 layer_factory.hpp:77] Creating layer bn3c_branch2a
I0603 17:09:45.409823 17324 net.cpp:84] Creating Layer bn3c_branch2a
I0603 17:09:45.409831 17324 net.cpp:406] bn3c_branch2a <- res3c_branch2a
I0603 17:09:45.409838 17324 net.cpp:367] bn3c_branch2a -> res3c_branch2a (in-place)
I0603 17:09:45.410010 17324 net.cpp:122] Setting up bn3c_branch2a
I0603 17:09:45.410022 17324 net.cpp:129] Top shape: 1 128 28 28 (100352)
I0603 17:09:45.410027 17324 net.cpp:137] Memory required for data: 146714624
I0603 17:09:45.410037 17324 layer_factory.hpp:77] Creating layer scale3c_branch2a
I0603 17:09:45.410048 17324 net.cpp:84] Creating Layer scale3c_branch2a
I0603 17:09:45.410054 17324 net.cpp:406] scale3c_branch2a <- res3c_branch2a
I0603 17:09:45.410061 17324 net.cpp:367] scale3c_branch2a -> res3c_branch2a (in-place)
I0603 17:09:45.410109 17324 layer_factory.hpp:77] Creating layer scale3c_branch2a
I0603 17:09:45.410219 17324 net.cpp:122] Setting up scale3c_branch2a
I0603 17:09:45.410231 17324 net.cpp:129] Top shape: 1 128 28 28 (100352)
I0603 17:09:45.410236 17324 net.cpp:137] Memory required for data: 147116032
I0603 17:09:45.410245 17324 layer_factory.hpp:77] Creating layer res3c_branch2a_relu
I0603 17:09:45.410253 17324 net.cpp:84] Creating Layer res3c_branch2a_relu
I0603 17:09:45.410259 17324 net.cpp:406] res3c_branch2a_relu <- res3c_branch2a
I0603 17:09:45.410267 17324 net.cpp:367] res3c_branch2a_relu -> res3c_branch2a (in-place)
I0603 17:09:45.410279 17324 net.cpp:122] Setting up res3c_branch2a_relu
I0603 17:09:45.410295 17324 net.cpp:129] Top shape: 1 128 28 28 (100352)
I0603 17:09:45.410303 17324 net.cpp:137] Memory required for data: 147517440
I0603 17:09:45.410308 17324 layer_factory.hpp:77] Creating layer res3c_branch2b
I0603 17:09:45.410317 17324 net.cpp:84] Creating Layer res3c_branch2b
I0603 17:09:45.410322 17324 net.cpp:406] res3c_branch2b <- res3c_branch2a
I0603 17:09:45.410331 17324 net.cpp:380] res3c_branch2b -> res3c_branch2b
I0603 17:09:45.410977 17324 net.cpp:122] Setting up res3c_branch2b
I0603 17:09:45.410993 17324 net.cpp:129] Top shape: 1 128 28 28 (100352)
I0603 17:09:45.411000 17324 net.cpp:137] Memory required for data: 147918848
I0603 17:09:45.411007 17324 layer_factory.hpp:77] Creating layer bn3c_branch2b
I0603 17:09:45.411017 17324 net.cpp:84] Creating Layer bn3c_branch2b
I0603 17:09:45.411026 17324 net.cpp:406] bn3c_branch2b <- res3c_branch2b
I0603 17:09:45.411041 17324 net.cpp:367] bn3c_branch2b -> res3c_branch2b (in-place)
I0603 17:09:45.411216 17324 net.cpp:122] Setting up bn3c_branch2b
I0603 17:09:45.411228 17324 net.cpp:129] Top shape: 1 128 28 28 (100352)
I0603 17:09:45.411233 17324 net.cpp:137] Memory required for data: 148320256
I0603 17:09:45.411244 17324 layer_factory.hpp:77] Creating layer scale3c_branch2b
I0603 17:09:45.411254 17324 net.cpp:84] Creating Layer scale3c_branch2b
I0603 17:09:45.411260 17324 net.cpp:406] scale3c_branch2b <- res3c_branch2b
I0603 17:09:45.411269 17324 net.cpp:367] scale3c_branch2b -> res3c_branch2b (in-place)
I0603 17:09:45.411315 17324 layer_factory.hpp:77] Creating layer scale3c_branch2b
I0603 17:09:45.411425 17324 net.cpp:122] Setting up scale3c_branch2b
I0603 17:09:45.411437 17324 net.cpp:129] Top shape: 1 128 28 28 (100352)
I0603 17:09:45.411442 17324 net.cpp:137] Memory required for data: 148721664
I0603 17:09:45.411451 17324 layer_factory.hpp:77] Creating layer res3c_branch2b_relu
I0603 17:09:45.411459 17324 net.cpp:84] Creating Layer res3c_branch2b_relu
I0603 17:09:45.411466 17324 net.cpp:406] res3c_branch2b_relu <- res3c_branch2b
I0603 17:09:45.411473 17324 net.cpp:367] res3c_branch2b_relu -> res3c_branch2b (in-place)
I0603 17:09:45.411481 17324 net.cpp:122] Setting up res3c_branch2b_relu
I0603 17:09:45.411499 17324 net.cpp:129] Top shape: 1 128 28 28 (100352)
I0603 17:09:45.411504 17324 net.cpp:137] Memory required for data: 149123072
I0603 17:09:45.411509 17324 layer_factory.hpp:77] Creating layer res3c_branch2c
I0603 17:09:45.411520 17324 net.cpp:84] Creating Layer res3c_branch2c
I0603 17:09:45.411527 17324 net.cpp:406] res3c_branch2c <- res3c_branch2b
I0603 17:09:45.411536 17324 net.cpp:380] res3c_branch2c -> res3c_branch2c
I0603 17:09:45.411732 17324 net.cpp:122] Setting up res3c_branch2c
I0603 17:09:45.411746 17324 net.cpp:129] Top shape: 1 512 28 28 (401408)
I0603 17:09:45.411751 17324 net.cpp:137] Memory required for data: 150728704
I0603 17:09:45.411757 17324 layer_factory.hpp:77] Creating layer bn3c_branch2c
I0603 17:09:45.411772 17324 net.cpp:84] Creating Layer bn3c_branch2c
I0603 17:09:45.411779 17324 net.cpp:406] bn3c_branch2c <- res3c_branch2c
I0603 17:09:45.411787 17324 net.cpp:367] bn3c_branch2c -> res3c_branch2c (in-place)
I0603 17:09:45.411959 17324 net.cpp:122] Setting up bn3c_branch2c
I0603 17:09:45.411970 17324 net.cpp:129] Top shape: 1 512 28 28 (401408)
I0603 17:09:45.411976 17324 net.cpp:137] Memory required for data: 152334336
I0603 17:09:45.411986 17324 layer_factory.hpp:77] Creating layer scale3c_branch2c
I0603 17:09:45.411998 17324 net.cpp:84] Creating Layer scale3c_branch2c
I0603 17:09:45.412005 17324 net.cpp:406] scale3c_branch2c <- res3c_branch2c
I0603 17:09:45.412014 17324 net.cpp:367] scale3c_branch2c -> res3c_branch2c (in-place)
I0603 17:09:45.412060 17324 layer_factory.hpp:77] Creating layer scale3c_branch2c
I0603 17:09:45.412168 17324 net.cpp:122] Setting up scale3c_branch2c
I0603 17:09:45.412178 17324 net.cpp:129] Top shape: 1 512 28 28 (401408)
I0603 17:09:45.412184 17324 net.cpp:137] Memory required for data: 153939968
I0603 17:09:45.412194 17324 layer_factory.hpp:77] Creating layer res3c
I0603 17:09:45.412200 17324 net.cpp:84] Creating Layer res3c
I0603 17:09:45.412207 17324 net.cpp:406] res3c <- res3b_res3b_relu_0_split_1
I0603 17:09:45.412214 17324 net.cpp:406] res3c <- res3c_branch2c
I0603 17:09:45.412225 17324 net.cpp:380] res3c -> res3c
I0603 17:09:45.412256 17324 net.cpp:122] Setting up res3c
I0603 17:09:45.412268 17324 net.cpp:129] Top shape: 1 512 28 28 (401408)
I0603 17:09:45.412273 17324 net.cpp:137] Memory required for data: 155545600
I0603 17:09:45.412279 17324 layer_factory.hpp:77] Creating layer res3c_relu
I0603 17:09:45.412286 17324 net.cpp:84] Creating Layer res3c_relu
I0603 17:09:45.412291 17324 net.cpp:406] res3c_relu <- res3c
I0603 17:09:45.412297 17324 net.cpp:367] res3c_relu -> res3c (in-place)
I0603 17:09:45.412304 17324 net.cpp:122] Setting up res3c_relu
I0603 17:09:45.412312 17324 net.cpp:129] Top shape: 1 512 28 28 (401408)
I0603 17:09:45.412317 17324 net.cpp:137] Memory required for data: 157151232
I0603 17:09:45.412322 17324 layer_factory.hpp:77] Creating layer res3c_res3c_relu_0_split
I0603 17:09:45.412328 17324 net.cpp:84] Creating Layer res3c_res3c_relu_0_split
I0603 17:09:45.412333 17324 net.cpp:406] res3c_res3c_relu_0_split <- res3c
I0603 17:09:45.412341 17324 net.cpp:380] res3c_res3c_relu_0_split -> res3c_res3c_relu_0_split_0
I0603 17:09:45.412349 17324 net.cpp:380] res3c_res3c_relu_0_split -> res3c_res3c_relu_0_split_1
I0603 17:09:45.412380 17324 net.cpp:122] Setting up res3c_res3c_relu_0_split
I0603 17:09:45.412390 17324 net.cpp:129] Top shape: 1 512 28 28 (401408)
I0603 17:09:45.412396 17324 net.cpp:129] Top shape: 1 512 28 28 (401408)
I0603 17:09:45.412401 17324 net.cpp:137] Memory required for data: 160362496
I0603 17:09:45.412406 17324 layer_factory.hpp:77] Creating layer res3d_branch2a
I0603 17:09:45.412417 17324 net.cpp:84] Creating Layer res3d_branch2a
I0603 17:09:45.412425 17324 net.cpp:406] res3d_branch2a <- res3c_res3c_relu_0_split_0
I0603 17:09:45.412432 17324 net.cpp:380] res3d_branch2a -> res3d_branch2a
I0603 17:09:45.413028 17324 net.cpp:122] Setting up res3d_branch2a
I0603 17:09:45.413043 17324 net.cpp:129] Top shape: 1 128 28 28 (100352)
I0603 17:09:45.413048 17324 net.cpp:137] Memory required for data: 160763904
I0603 17:09:45.413056 17324 layer_factory.hpp:77] Creating layer bn3d_branch2a
I0603 17:09:45.413066 17324 net.cpp:84] Creating Layer bn3d_branch2a
I0603 17:09:45.413074 17324 net.cpp:406] bn3d_branch2a <- res3d_branch2a
I0603 17:09:45.413082 17324 net.cpp:367] bn3d_branch2a -> res3d_branch2a (in-place)
I0603 17:09:45.413257 17324 net.cpp:122] Setting up bn3d_branch2a
I0603 17:09:45.413269 17324 net.cpp:129] Top shape: 1 128 28 28 (100352)
I0603 17:09:45.413275 17324 net.cpp:137] Memory required for data: 161165312
I0603 17:09:45.413305 17324 layer_factory.hpp:77] Creating layer scale3d_branch2a
I0603 17:09:45.413317 17324 net.cpp:84] Creating Layer scale3d_branch2a
I0603 17:09:45.413332 17324 net.cpp:406] scale3d_branch2a <- res3d_branch2a
I0603 17:09:45.413342 17324 net.cpp:367] scale3d_branch2a -> res3d_branch2a (in-place)
I0603 17:09:45.413380 17324 layer_factory.hpp:77] Creating layer scale3d_branch2a
I0603 17:09:45.413488 17324 net.cpp:122] Setting up scale3d_branch2a
I0603 17:09:45.413499 17324 net.cpp:129] Top shape: 1 128 28 28 (100352)
I0603 17:09:45.413506 17324 net.cpp:137] Memory required for data: 161566720
I0603 17:09:45.413513 17324 layer_factory.hpp:77] Creating layer res3d_branch2a_relu
I0603 17:09:45.413522 17324 net.cpp:84] Creating Layer res3d_branch2a_relu
I0603 17:09:45.413527 17324 net.cpp:406] res3d_branch2a_relu <- res3d_branch2a
I0603 17:09:45.413534 17324 net.cpp:367] res3d_branch2a_relu -> res3d_branch2a (in-place)
I0603 17:09:45.413542 17324 net.cpp:122] Setting up res3d_branch2a_relu
I0603 17:09:45.413559 17324 net.cpp:129] Top shape: 1 128 28 28 (100352)
I0603 17:09:45.413565 17324 net.cpp:137] Memory required for data: 161968128
I0603 17:09:45.413570 17324 layer_factory.hpp:77] Creating layer res3d_branch2b
I0603 17:09:45.413580 17324 net.cpp:84] Creating Layer res3d_branch2b
I0603 17:09:45.413588 17324 net.cpp:406] res3d_branch2b <- res3d_branch2a
I0603 17:09:45.413595 17324 net.cpp:380] res3d_branch2b -> res3d_branch2b
I0603 17:09:45.414239 17324 net.cpp:122] Setting up res3d_branch2b
I0603 17:09:45.414254 17324 net.cpp:129] Top shape: 1 128 28 28 (100352)
I0603 17:09:45.414260 17324 net.cpp:137] Memory required for data: 162369536
I0603 17:09:45.414268 17324 layer_factory.hpp:77] Creating layer bn3d_branch2b
I0603 17:09:45.414275 17324 net.cpp:84] Creating Layer bn3d_branch2b
I0603 17:09:45.414281 17324 net.cpp:406] bn3d_branch2b <- res3d_branch2b
I0603 17:09:45.414291 17324 net.cpp:367] bn3d_branch2b -> res3d_branch2b (in-place)
I0603 17:09:45.414468 17324 net.cpp:122] Setting up bn3d_branch2b
I0603 17:09:45.414479 17324 net.cpp:129] Top shape: 1 128 28 28 (100352)
I0603 17:09:45.414485 17324 net.cpp:137] Memory required for data: 162770944
I0603 17:09:45.414495 17324 layer_factory.hpp:77] Creating layer scale3d_branch2b
I0603 17:09:45.414505 17324 net.cpp:84] Creating Layer scale3d_branch2b
I0603 17:09:45.414511 17324 net.cpp:406] scale3d_branch2b <- res3d_branch2b
I0603 17:09:45.414518 17324 net.cpp:367] scale3d_branch2b -> res3d_branch2b (in-place)
I0603 17:09:45.414567 17324 layer_factory.hpp:77] Creating layer scale3d_branch2b
I0603 17:09:45.414675 17324 net.cpp:122] Setting up scale3d_branch2b
I0603 17:09:45.414687 17324 net.cpp:129] Top shape: 1 128 28 28 (100352)
I0603 17:09:45.414692 17324 net.cpp:137] Memory required for data: 163172352
I0603 17:09:45.414701 17324 layer_factory.hpp:77] Creating layer res3d_branch2b_relu
I0603 17:09:45.414710 17324 net.cpp:84] Creating Layer res3d_branch2b_relu
I0603 17:09:45.414716 17324 net.cpp:406] res3d_branch2b_relu <- res3d_branch2b
I0603 17:09:45.414726 17324 net.cpp:367] res3d_branch2b_relu -> res3d_branch2b (in-place)
I0603 17:09:45.414736 17324 net.cpp:122] Setting up res3d_branch2b_relu
I0603 17:09:45.414752 17324 net.cpp:129] Top shape: 1 128 28 28 (100352)
I0603 17:09:45.414758 17324 net.cpp:137] Memory required for data: 163573760
I0603 17:09:45.414763 17324 layer_factory.hpp:77] Creating layer res3d_branch2c
I0603 17:09:45.414772 17324 net.cpp:84] Creating Layer res3d_branch2c
I0603 17:09:45.414779 17324 net.cpp:406] res3d_branch2c <- res3d_branch2b
I0603 17:09:45.414788 17324 net.cpp:380] res3d_branch2c -> res3d_branch2c
I0603 17:09:45.414990 17324 net.cpp:122] Setting up res3d_branch2c
I0603 17:09:45.415004 17324 net.cpp:129] Top shape: 1 512 28 28 (401408)
I0603 17:09:45.415009 17324 net.cpp:137] Memory required for data: 165179392
I0603 17:09:45.415015 17324 layer_factory.hpp:77] Creating layer bn3d_branch2c
I0603 17:09:45.415025 17324 net.cpp:84] Creating Layer bn3d_branch2c
I0603 17:09:45.415033 17324 net.cpp:406] bn3d_branch2c <- res3d_branch2c
I0603 17:09:45.415040 17324 net.cpp:367] bn3d_branch2c -> res3d_branch2c (in-place)
I0603 17:09:45.415221 17324 net.cpp:122] Setting up bn3d_branch2c
I0603 17:09:45.415233 17324 net.cpp:129] Top shape: 1 512 28 28 (401408)
I0603 17:09:45.415238 17324 net.cpp:137] Memory required for data: 166785024
I0603 17:09:45.415249 17324 layer_factory.hpp:77] Creating layer scale3d_branch2c
I0603 17:09:45.415261 17324 net.cpp:84] Creating Layer scale3d_branch2c
I0603 17:09:45.415267 17324 net.cpp:406] scale3d_branch2c <- res3d_branch2c
I0603 17:09:45.415276 17324 net.cpp:367] scale3d_branch2c -> res3d_branch2c (in-place)
I0603 17:09:45.415323 17324 layer_factory.hpp:77] Creating layer scale3d_branch2c
I0603 17:09:45.415434 17324 net.cpp:122] Setting up scale3d_branch2c
I0603 17:09:45.415446 17324 net.cpp:129] Top shape: 1 512 28 28 (401408)
I0603 17:09:45.415452 17324 net.cpp:137] Memory required for data: 168390656
I0603 17:09:45.415459 17324 layer_factory.hpp:77] Creating layer res3d
I0603 17:09:45.415467 17324 net.cpp:84] Creating Layer res3d
I0603 17:09:45.415473 17324 net.cpp:406] res3d <- res3c_res3c_relu_0_split_1
I0603 17:09:45.415479 17324 net.cpp:406] res3d <- res3d_branch2c
I0603 17:09:45.415487 17324 net.cpp:380] res3d -> res3d
I0603 17:09:45.415521 17324 net.cpp:122] Setting up res3d
I0603 17:09:45.415532 17324 net.cpp:129] Top shape: 1 512 28 28 (401408)
I0603 17:09:45.415537 17324 net.cpp:137] Memory required for data: 169996288
I0603 17:09:45.415542 17324 layer_factory.hpp:77] Creating layer res3d_relu
I0603 17:09:45.415550 17324 net.cpp:84] Creating Layer res3d_relu
I0603 17:09:45.415555 17324 net.cpp:406] res3d_relu <- res3d
I0603 17:09:45.415562 17324 net.cpp:367] res3d_relu -> res3d (in-place)
I0603 17:09:45.415570 17324 net.cpp:122] Setting up res3d_relu
I0603 17:09:45.415577 17324 net.cpp:129] Top shape: 1 512 28 28 (401408)
I0603 17:09:45.415582 17324 net.cpp:137] Memory required for data: 171601920
I0603 17:09:45.415587 17324 layer_factory.hpp:77] Creating layer res3d_res3d_relu_0_split
I0603 17:09:45.415594 17324 net.cpp:84] Creating Layer res3d_res3d_relu_0_split
I0603 17:09:45.415599 17324 net.cpp:406] res3d_res3d_relu_0_split <- res3d
I0603 17:09:45.415607 17324 net.cpp:380] res3d_res3d_relu_0_split -> res3d_res3d_relu_0_split_0
I0603 17:09:45.415616 17324 net.cpp:380] res3d_res3d_relu_0_split -> res3d_res3d_relu_0_split_1
I0603 17:09:45.415648 17324 net.cpp:122] Setting up res3d_res3d_relu_0_split
I0603 17:09:45.415658 17324 net.cpp:129] Top shape: 1 512 28 28 (401408)
I0603 17:09:45.415664 17324 net.cpp:129] Top shape: 1 512 28 28 (401408)
I0603 17:09:45.415669 17324 net.cpp:137] Memory required for data: 174813184
I0603 17:09:45.415674 17324 layer_factory.hpp:77] Creating layer res4a_branch1
I0603 17:09:45.415688 17324 net.cpp:84] Creating Layer res4a_branch1
I0603 17:09:45.415694 17324 net.cpp:406] res4a_branch1 <- res3d_res3d_relu_0_split_0
I0603 17:09:45.415702 17324 net.cpp:380] res4a_branch1 -> res4a_branch1
I0603 17:09:45.416837 17324 net.cpp:122] Setting up res4a_branch1
I0603 17:09:45.416854 17324 net.cpp:129] Top shape: 1 1024 14 14 (200704)
I0603 17:09:45.416859 17324 net.cpp:137] Memory required for data: 175616000
I0603 17:09:45.416867 17324 layer_factory.hpp:77] Creating layer bn4a_branch1
I0603 17:09:45.416877 17324 net.cpp:84] Creating Layer bn4a_branch1
I0603 17:09:45.416885 17324 net.cpp:406] bn4a_branch1 <- res4a_branch1
I0603 17:09:45.416893 17324 net.cpp:367] bn4a_branch1 -> res4a_branch1 (in-place)
I0603 17:09:45.417083 17324 net.cpp:122] Setting up bn4a_branch1
I0603 17:09:45.417094 17324 net.cpp:129] Top shape: 1 1024 14 14 (200704)
I0603 17:09:45.417100 17324 net.cpp:137] Memory required for data: 176418816
I0603 17:09:45.417111 17324 layer_factory.hpp:77] Creating layer scale4a_branch1
I0603 17:09:45.417122 17324 net.cpp:84] Creating Layer scale4a_branch1
I0603 17:09:45.417130 17324 net.cpp:406] scale4a_branch1 <- res4a_branch1
I0603 17:09:45.417138 17324 net.cpp:367] scale4a_branch1 -> res4a_branch1 (in-place)
I0603 17:09:45.417181 17324 layer_factory.hpp:77] Creating layer scale4a_branch1
I0603 17:09:45.417306 17324 net.cpp:122] Setting up scale4a_branch1
I0603 17:09:45.417320 17324 net.cpp:129] Top shape: 1 1024 14 14 (200704)
I0603 17:09:45.417325 17324 net.cpp:137] Memory required for data: 177221632
I0603 17:09:45.417335 17324 layer_factory.hpp:77] Creating layer res4a_branch2a
I0603 17:09:45.417347 17324 net.cpp:84] Creating Layer res4a_branch2a
I0603 17:09:45.417356 17324 net.cpp:406] res4a_branch2a <- res3d_res3d_relu_0_split_1
I0603 17:09:45.417364 17324 net.cpp:380] res4a_branch2a -> res4a_branch2a
I0603 17:09:45.417676 17324 net.cpp:122] Setting up res4a_branch2a
I0603 17:09:45.417691 17324 net.cpp:129] Top shape: 1 256 14 14 (50176)
I0603 17:09:45.417697 17324 net.cpp:137] Memory required for data: 177422336
I0603 17:09:45.417706 17324 layer_factory.hpp:77] Creating layer bn4a_branch2a
I0603 17:09:45.417717 17324 net.cpp:84] Creating Layer bn4a_branch2a
I0603 17:09:45.417726 17324 net.cpp:406] bn4a_branch2a <- res4a_branch2a
I0603 17:09:45.417734 17324 net.cpp:367] bn4a_branch2a -> res4a_branch2a (in-place)
I0603 17:09:45.417922 17324 net.cpp:122] Setting up bn4a_branch2a
I0603 17:09:45.417935 17324 net.cpp:129] Top shape: 1 256 14 14 (50176)
I0603 17:09:45.417943 17324 net.cpp:137] Memory required for data: 177623040
I0603 17:09:45.417953 17324 layer_factory.hpp:77] Creating layer scale4a_branch2a
I0603 17:09:45.417964 17324 net.cpp:84] Creating Layer scale4a_branch2a
I0603 17:09:45.417971 17324 net.cpp:406] scale4a_branch2a <- res4a_branch2a
I0603 17:09:45.417981 17324 net.cpp:367] scale4a_branch2a -> res4a_branch2a (in-place)
I0603 17:09:45.418030 17324 layer_factory.hpp:77] Creating layer scale4a_branch2a
I0603 17:09:45.418150 17324 net.cpp:122] Setting up scale4a_branch2a
I0603 17:09:45.418164 17324 net.cpp:129] Top shape: 1 256 14 14 (50176)
I0603 17:09:45.418170 17324 net.cpp:137] Memory required for data: 177823744
I0603 17:09:45.418180 17324 layer_factory.hpp:77] Creating layer res4a_branch2a_relu
I0603 17:09:45.418190 17324 net.cpp:84] Creating Layer res4a_branch2a_relu
I0603 17:09:45.418197 17324 net.cpp:406] res4a_branch2a_relu <- res4a_branch2a
I0603 17:09:45.418205 17324 net.cpp:367] res4a_branch2a_relu -> res4a_branch2a (in-place)
I0603 17:09:45.418215 17324 net.cpp:122] Setting up res4a_branch2a_relu
I0603 17:09:45.418225 17324 net.cpp:129] Top shape: 1 256 14 14 (50176)
I0603 17:09:45.418238 17324 net.cpp:137] Memory required for data: 178024448
I0603 17:09:45.418244 17324 layer_factory.hpp:77] Creating layer res4a_branch2b
I0603 17:09:45.418256 17324 net.cpp:84] Creating Layer res4a_branch2b
I0603 17:09:45.418313 17324 net.cpp:406] res4a_branch2b <- res4a_branch2a
I0603 17:09:45.418325 17324 net.cpp:380] res4a_branch2b -> res4a_branch2b
I0603 17:09:45.419600 17324 net.cpp:122] Setting up res4a_branch2b
I0603 17:09:45.419618 17324 net.cpp:129] Top shape: 1 256 14 14 (50176)
I0603 17:09:45.419625 17324 net.cpp:137] Memory required for data: 178225152
I0603 17:09:45.419632 17324 layer_factory.hpp:77] Creating layer bn4a_branch2b
I0603 17:09:45.419641 17324 net.cpp:84] Creating Layer bn4a_branch2b
I0603 17:09:45.419648 17324 net.cpp:406] bn4a_branch2b <- res4a_branch2b
I0603 17:09:45.419657 17324 net.cpp:367] bn4a_branch2b -> res4a_branch2b (in-place)
I0603 17:09:45.419836 17324 net.cpp:122] Setting up bn4a_branch2b
I0603 17:09:45.419847 17324 net.cpp:129] Top shape: 1 256 14 14 (50176)
I0603 17:09:45.419853 17324 net.cpp:137] Memory required for data: 178425856
I0603 17:09:45.419864 17324 layer_factory.hpp:77] Creating layer scale4a_branch2b
I0603 17:09:45.419874 17324 net.cpp:84] Creating Layer scale4a_branch2b
I0603 17:09:45.419879 17324 net.cpp:406] scale4a_branch2b <- res4a_branch2b
I0603 17:09:45.419888 17324 net.cpp:367] scale4a_branch2b -> res4a_branch2b (in-place)
I0603 17:09:45.419935 17324 layer_factory.hpp:77] Creating layer scale4a_branch2b
I0603 17:09:45.420097 17324 net.cpp:122] Setting up scale4a_branch2b
I0603 17:09:45.420110 17324 net.cpp:129] Top shape: 1 256 14 14 (50176)
I0603 17:09:45.420116 17324 net.cpp:137] Memory required for data: 178626560
I0603 17:09:45.420125 17324 layer_factory.hpp:77] Creating layer res4a_branch2b_relu
I0603 17:09:45.420133 17324 net.cpp:84] Creating Layer res4a_branch2b_relu
I0603 17:09:45.420140 17324 net.cpp:406] res4a_branch2b_relu <- res4a_branch2b
I0603 17:09:45.420158 17324 net.cpp:367] res4a_branch2b_relu -> res4a_branch2b (in-place)
I0603 17:09:45.420168 17324 net.cpp:122] Setting up res4a_branch2b_relu
I0603 17:09:45.420176 17324 net.cpp:129] Top shape: 1 256 14 14 (50176)
I0603 17:09:45.420181 17324 net.cpp:137] Memory required for data: 178827264
I0603 17:09:45.420186 17324 layer_factory.hpp:77] Creating layer res4a_branch2c
I0603 17:09:45.420194 17324 net.cpp:84] Creating Layer res4a_branch2c
I0603 17:09:45.420199 17324 net.cpp:406] res4a_branch2c <- res4a_branch2b
I0603 17:09:45.420209 17324 net.cpp:380] res4a_branch2c -> res4a_branch2c
I0603 17:09:45.420928 17324 net.cpp:122] Setting up res4a_branch2c
I0603 17:09:45.420941 17324 net.cpp:129] Top shape: 1 1024 14 14 (200704)
I0603 17:09:45.420948 17324 net.cpp:137] Memory required for data: 179630080
I0603 17:09:45.420955 17324 layer_factory.hpp:77] Creating layer bn4a_branch2c
I0603 17:09:45.420964 17324 net.cpp:84] Creating Layer bn4a_branch2c
I0603 17:09:45.420970 17324 net.cpp:406] bn4a_branch2c <- res4a_branch2c
I0603 17:09:45.420979 17324 net.cpp:367] bn4a_branch2c -> res4a_branch2c (in-place)
I0603 17:09:45.421157 17324 net.cpp:122] Setting up bn4a_branch2c
I0603 17:09:45.421169 17324 net.cpp:129] Top shape: 1 1024 14 14 (200704)
I0603 17:09:45.421175 17324 net.cpp:137] Memory required for data: 180432896
I0603 17:09:45.421185 17324 layer_factory.hpp:77] Creating layer scale4a_branch2c
I0603 17:09:45.421200 17324 net.cpp:84] Creating Layer scale4a_branch2c
I0603 17:09:45.421207 17324 net.cpp:406] scale4a_branch2c <- res4a_branch2c
I0603 17:09:45.421216 17324 net.cpp:367] scale4a_branch2c -> res4a_branch2c (in-place)
I0603 17:09:45.421260 17324 layer_factory.hpp:77] Creating layer scale4a_branch2c
I0603 17:09:45.421391 17324 net.cpp:122] Setting up scale4a_branch2c
I0603 17:09:45.421402 17324 net.cpp:129] Top shape: 1 1024 14 14 (200704)
I0603 17:09:45.421408 17324 net.cpp:137] Memory required for data: 181235712
I0603 17:09:45.421417 17324 layer_factory.hpp:77] Creating layer res4a
I0603 17:09:45.421428 17324 net.cpp:84] Creating Layer res4a
I0603 17:09:45.421437 17324 net.cpp:406] res4a <- res4a_branch1
I0603 17:09:45.421444 17324 net.cpp:406] res4a <- res4a_branch2c
I0603 17:09:45.421460 17324 net.cpp:380] res4a -> res4a
I0603 17:09:45.421491 17324 net.cpp:122] Setting up res4a
I0603 17:09:45.421502 17324 net.cpp:129] Top shape: 1 1024 14 14 (200704)
I0603 17:09:45.421507 17324 net.cpp:137] Memory required for data: 182038528
I0603 17:09:45.421514 17324 layer_factory.hpp:77] Creating layer res4a_relu
I0603 17:09:45.421520 17324 net.cpp:84] Creating Layer res4a_relu
I0603 17:09:45.421525 17324 net.cpp:406] res4a_relu <- res4a
I0603 17:09:45.421532 17324 net.cpp:367] res4a_relu -> res4a (in-place)
I0603 17:09:45.421540 17324 net.cpp:122] Setting up res4a_relu
I0603 17:09:45.421547 17324 net.cpp:129] Top shape: 1 1024 14 14 (200704)
I0603 17:09:45.421552 17324 net.cpp:137] Memory required for data: 182841344
I0603 17:09:45.421558 17324 layer_factory.hpp:77] Creating layer res4a_res4a_relu_0_split
I0603 17:09:45.421567 17324 net.cpp:84] Creating Layer res4a_res4a_relu_0_split
I0603 17:09:45.421576 17324 net.cpp:406] res4a_res4a_relu_0_split <- res4a
I0603 17:09:45.421582 17324 net.cpp:380] res4a_res4a_relu_0_split -> res4a_res4a_relu_0_split_0
I0603 17:09:45.421591 17324 net.cpp:380] res4a_res4a_relu_0_split -> res4a_res4a_relu_0_split_1
I0603 17:09:45.421628 17324 net.cpp:122] Setting up res4a_res4a_relu_0_split
I0603 17:09:45.421638 17324 net.cpp:129] Top shape: 1 1024 14 14 (200704)
I0603 17:09:45.421645 17324 net.cpp:129] Top shape: 1 1024 14 14 (200704)
I0603 17:09:45.421650 17324 net.cpp:137] Memory required for data: 184446976
I0603 17:09:45.421656 17324 layer_factory.hpp:77] Creating layer res4b_branch2a
I0603 17:09:45.421679 17324 net.cpp:84] Creating Layer res4b_branch2a
I0603 17:09:45.421687 17324 net.cpp:406] res4b_branch2a <- res4a_res4a_relu_0_split_0
I0603 17:09:45.421696 17324 net.cpp:380] res4b_branch2a -> res4b_branch2a
I0603 17:09:45.422483 17324 net.cpp:122] Setting up res4b_branch2a
I0603 17:09:45.422499 17324 net.cpp:129] Top shape: 1 256 14 14 (50176)
I0603 17:09:45.422504 17324 net.cpp:137] Memory required for data: 184647680
I0603 17:09:45.422513 17324 layer_factory.hpp:77] Creating layer bn4b_branch2a
I0603 17:09:45.422521 17324 net.cpp:84] Creating Layer bn4b_branch2a
I0603 17:09:45.422528 17324 net.cpp:406] bn4b_branch2a <- res4b_branch2a
I0603 17:09:45.422536 17324 net.cpp:367] bn4b_branch2a -> res4b_branch2a (in-place)
I0603 17:09:45.422715 17324 net.cpp:122] Setting up bn4b_branch2a
I0603 17:09:45.422726 17324 net.cpp:129] Top shape: 1 256 14 14 (50176)
I0603 17:09:45.422732 17324 net.cpp:137] Memory required for data: 184848384
I0603 17:09:45.422742 17324 layer_factory.hpp:77] Creating layer scale4b_branch2a
I0603 17:09:45.422754 17324 net.cpp:84] Creating Layer scale4b_branch2a
I0603 17:09:45.422761 17324 net.cpp:406] scale4b_branch2a <- res4b_branch2a
I0603 17:09:45.422768 17324 net.cpp:367] scale4b_branch2a -> res4b_branch2a (in-place)
I0603 17:09:45.422816 17324 layer_factory.hpp:77] Creating layer scale4b_branch2a
I0603 17:09:45.422924 17324 net.cpp:122] Setting up scale4b_branch2a
I0603 17:09:45.422935 17324 net.cpp:129] Top shape: 1 256 14 14 (50176)
I0603 17:09:45.422941 17324 net.cpp:137] Memory required for data: 185049088
I0603 17:09:45.422950 17324 layer_factory.hpp:77] Creating layer res4b_branch2a_relu
I0603 17:09:45.422960 17324 net.cpp:84] Creating Layer res4b_branch2a_relu
I0603 17:09:45.422966 17324 net.cpp:406] res4b_branch2a_relu <- res4b_branch2a
I0603 17:09:45.422973 17324 net.cpp:367] res4b_branch2a_relu -> res4b_branch2a (in-place)
I0603 17:09:45.422981 17324 net.cpp:122] Setting up res4b_branch2a_relu
I0603 17:09:45.422989 17324 net.cpp:129] Top shape: 1 256 14 14 (50176)
I0603 17:09:45.423004 17324 net.cpp:137] Memory required for data: 185249792
I0603 17:09:45.423010 17324 layer_factory.hpp:77] Creating layer res4b_branch2b
I0603 17:09:45.423022 17324 net.cpp:84] Creating Layer res4b_branch2b
I0603 17:09:45.423028 17324 net.cpp:406] res4b_branch2b <- res4b_branch2a
I0603 17:09:45.423035 17324 net.cpp:380] res4b_branch2b -> res4b_branch2b
I0603 17:09:45.424346 17324 net.cpp:122] Setting up res4b_branch2b
I0603 17:09:45.424366 17324 net.cpp:129] Top shape: 1 256 14 14 (50176)
I0603 17:09:45.424372 17324 net.cpp:137] Memory required for data: 185450496
I0603 17:09:45.424381 17324 layer_factory.hpp:77] Creating layer bn4b_branch2b
I0603 17:09:45.424391 17324 net.cpp:84] Creating Layer bn4b_branch2b
I0603 17:09:45.424397 17324 net.cpp:406] bn4b_branch2b <- res4b_branch2b
I0603 17:09:45.424407 17324 net.cpp:367] bn4b_branch2b -> res4b_branch2b (in-place)
I0603 17:09:45.424597 17324 net.cpp:122] Setting up bn4b_branch2b
I0603 17:09:45.424609 17324 net.cpp:129] Top shape: 1 256 14 14 (50176)
I0603 17:09:45.424615 17324 net.cpp:137] Memory required for data: 185651200
I0603 17:09:45.424626 17324 layer_factory.hpp:77] Creating layer scale4b_branch2b
I0603 17:09:45.424636 17324 net.cpp:84] Creating Layer scale4b_branch2b
I0603 17:09:45.424643 17324 net.cpp:406] scale4b_branch2b <- res4b_branch2b
I0603 17:09:45.424651 17324 net.cpp:367] scale4b_branch2b -> res4b_branch2b (in-place)
I0603 17:09:45.424705 17324 layer_factory.hpp:77] Creating layer scale4b_branch2b
I0603 17:09:45.424819 17324 net.cpp:122] Setting up scale4b_branch2b
I0603 17:09:45.424832 17324 net.cpp:129] Top shape: 1 256 14 14 (50176)
I0603 17:09:45.424837 17324 net.cpp:137] Memory required for data: 185851904
I0603 17:09:45.424847 17324 layer_factory.hpp:77] Creating layer res4b_branch2b_relu
I0603 17:09:45.424859 17324 net.cpp:84] Creating Layer res4b_branch2b_relu
I0603 17:09:45.424865 17324 net.cpp:406] res4b_branch2b_relu <- res4b_branch2b
I0603 17:09:45.424873 17324 net.cpp:367] res4b_branch2b_relu -> res4b_branch2b (in-place)
I0603 17:09:45.424882 17324 net.cpp:122] Setting up res4b_branch2b_relu
I0603 17:09:45.424901 17324 net.cpp:129] Top shape: 1 256 14 14 (50176)
I0603 17:09:45.424906 17324 net.cpp:137] Memory required for data: 186052608
I0603 17:09:45.424911 17324 layer_factory.hpp:77] Creating layer res4b_branch2c
I0603 17:09:45.424926 17324 net.cpp:84] Creating Layer res4b_branch2c
I0603 17:09:45.424932 17324 net.cpp:406] res4b_branch2c <- res4b_branch2b
I0603 17:09:45.424940 17324 net.cpp:380] res4b_branch2c -> res4b_branch2c
I0603 17:09:45.425717 17324 net.cpp:122] Setting up res4b_branch2c
I0603 17:09:45.425732 17324 net.cpp:129] Top shape: 1 1024 14 14 (200704)
I0603 17:09:45.425739 17324 net.cpp:137] Memory required for data: 186855424
I0603 17:09:45.425745 17324 layer_factory.hpp:77] Creating layer bn4b_branch2c
I0603 17:09:45.425755 17324 net.cpp:84] Creating Layer bn4b_branch2c
I0603 17:09:45.425763 17324 net.cpp:406] bn4b_branch2c <- res4b_branch2c
I0603 17:09:45.425779 17324 net.cpp:367] bn4b_branch2c -> res4b_branch2c (in-place)
I0603 17:09:45.425951 17324 net.cpp:122] Setting up bn4b_branch2c
I0603 17:09:45.425962 17324 net.cpp:129] Top shape: 1 1024 14 14 (200704)
I0603 17:09:45.425968 17324 net.cpp:137] Memory required for data: 187658240
I0603 17:09:45.425978 17324 layer_factory.hpp:77] Creating layer scale4b_branch2c
I0603 17:09:45.425990 17324 net.cpp:84] Creating Layer scale4b_branch2c
I0603 17:09:45.425997 17324 net.cpp:406] scale4b_branch2c <- res4b_branch2c
I0603 17:09:45.426005 17324 net.cpp:367] scale4b_branch2c -> res4b_branch2c (in-place)
I0603 17:09:45.426048 17324 layer_factory.hpp:77] Creating layer scale4b_branch2c
I0603 17:09:45.426167 17324 net.cpp:122] Setting up scale4b_branch2c
I0603 17:09:45.426178 17324 net.cpp:129] Top shape: 1 1024 14 14 (200704)
I0603 17:09:45.426183 17324 net.cpp:137] Memory required for data: 188461056
I0603 17:09:45.426192 17324 layer_factory.hpp:77] Creating layer res4b
I0603 17:09:45.426200 17324 net.cpp:84] Creating Layer res4b
I0603 17:09:45.426208 17324 net.cpp:406] res4b <- res4a_res4a_relu_0_split_1
I0603 17:09:45.426214 17324 net.cpp:406] res4b <- res4b_branch2c
I0603 17:09:45.426224 17324 net.cpp:380] res4b -> res4b
I0603 17:09:45.426259 17324 net.cpp:122] Setting up res4b
I0603 17:09:45.426270 17324 net.cpp:129] Top shape: 1 1024 14 14 (200704)
I0603 17:09:45.426276 17324 net.cpp:137] Memory required for data: 189263872
I0603 17:09:45.426282 17324 layer_factory.hpp:77] Creating layer res4b_relu
I0603 17:09:45.426288 17324 net.cpp:84] Creating Layer res4b_relu
I0603 17:09:45.426293 17324 net.cpp:406] res4b_relu <- res4b
I0603 17:09:45.426301 17324 net.cpp:367] res4b_relu -> res4b (in-place)
I0603 17:09:45.426307 17324 net.cpp:122] Setting up res4b_relu
I0603 17:09:45.426314 17324 net.cpp:129] Top shape: 1 1024 14 14 (200704)
I0603 17:09:45.426318 17324 net.cpp:137] Memory required for data: 190066688
I0603 17:09:45.426323 17324 layer_factory.hpp:77] Creating layer res4b_res4b_relu_0_split
I0603 17:09:45.426331 17324 net.cpp:84] Creating Layer res4b_res4b_relu_0_split
I0603 17:09:45.426336 17324 net.cpp:406] res4b_res4b_relu_0_split <- res4b
I0603 17:09:45.426343 17324 net.cpp:380] res4b_res4b_relu_0_split -> res4b_res4b_relu_0_split_0
I0603 17:09:45.426352 17324 net.cpp:380] res4b_res4b_relu_0_split -> res4b_res4b_relu_0_split_1
I0603 17:09:45.426385 17324 net.cpp:122] Setting up res4b_res4b_relu_0_split
I0603 17:09:45.426395 17324 net.cpp:129] Top shape: 1 1024 14 14 (200704)
I0603 17:09:45.426401 17324 net.cpp:129] Top shape: 1 1024 14 14 (200704)
I0603 17:09:45.426406 17324 net.cpp:137] Memory required for data: 191672320
I0603 17:09:45.426411 17324 layer_factory.hpp:77] Creating layer res4c_branch2a
I0603 17:09:45.426424 17324 net.cpp:84] Creating Layer res4c_branch2a
I0603 17:09:45.426431 17324 net.cpp:406] res4c_branch2a <- res4b_res4b_relu_0_split_0
I0603 17:09:45.426440 17324 net.cpp:380] res4c_branch2a -> res4c_branch2a
I0603 17:09:45.427212 17324 net.cpp:122] Setting up res4c_branch2a
I0603 17:09:45.427228 17324 net.cpp:129] Top shape: 1 256 14 14 (50176)
I0603 17:09:45.427234 17324 net.cpp:137] Memory required for data: 191873024
I0603 17:09:45.427242 17324 layer_factory.hpp:77] Creating layer bn4c_branch2a
I0603 17:09:45.427253 17324 net.cpp:84] Creating Layer bn4c_branch2a
I0603 17:09:45.427259 17324 net.cpp:406] bn4c_branch2a <- res4c_branch2a
I0603 17:09:45.427275 17324 net.cpp:367] bn4c_branch2a -> res4c_branch2a (in-place)
I0603 17:09:45.427446 17324 net.cpp:122] Setting up bn4c_branch2a
I0603 17:09:45.427459 17324 net.cpp:129] Top shape: 1 256 14 14 (50176)
I0603 17:09:45.427464 17324 net.cpp:137] Memory required for data: 192073728
I0603 17:09:45.427474 17324 layer_factory.hpp:77] Creating layer scale4c_branch2a
I0603 17:09:45.427484 17324 net.cpp:84] Creating Layer scale4c_branch2a
I0603 17:09:45.427490 17324 net.cpp:406] scale4c_branch2a <- res4c_branch2a
I0603 17:09:45.427500 17324 net.cpp:367] scale4c_branch2a -> res4c_branch2a (in-place)
I0603 17:09:45.427547 17324 layer_factory.hpp:77] Creating layer scale4c_branch2a
I0603 17:09:45.427656 17324 net.cpp:122] Setting up scale4c_branch2a
I0603 17:09:45.427670 17324 net.cpp:129] Top shape: 1 256 14 14 (50176)
I0603 17:09:45.427677 17324 net.cpp:137] Memory required for data: 192274432
I0603 17:09:45.427686 17324 layer_factory.hpp:77] Creating layer res4c_branch2a_relu
I0603 17:09:45.427695 17324 net.cpp:84] Creating Layer res4c_branch2a_relu
I0603 17:09:45.427700 17324 net.cpp:406] res4c_branch2a_relu <- res4c_branch2a
I0603 17:09:45.427708 17324 net.cpp:367] res4c_branch2a_relu -> res4c_branch2a (in-place)
I0603 17:09:45.427716 17324 net.cpp:122] Setting up res4c_branch2a_relu
I0603 17:09:45.427733 17324 net.cpp:129] Top shape: 1 256 14 14 (50176)
I0603 17:09:45.427738 17324 net.cpp:137] Memory required for data: 192475136
I0603 17:09:45.427743 17324 layer_factory.hpp:77] Creating layer res4c_branch2b
I0603 17:09:45.427754 17324 net.cpp:84] Creating Layer res4c_branch2b
I0603 17:09:45.427762 17324 net.cpp:406] res4c_branch2b <- res4c_branch2a
I0603 17:09:45.427769 17324 net.cpp:380] res4c_branch2b -> res4c_branch2b
I0603 17:09:45.429049 17324 net.cpp:122] Setting up res4c_branch2b
I0603 17:09:45.429066 17324 net.cpp:129] Top shape: 1 256 14 14 (50176)
I0603 17:09:45.429072 17324 net.cpp:137] Memory required for data: 192675840
I0603 17:09:45.429080 17324 layer_factory.hpp:77] Creating layer bn4c_branch2b
I0603 17:09:45.429088 17324 net.cpp:84] Creating Layer bn4c_branch2b
I0603 17:09:45.429095 17324 net.cpp:406] bn4c_branch2b <- res4c_branch2b
I0603 17:09:45.429102 17324 net.cpp:367] bn4c_branch2b -> res4c_branch2b (in-place)
I0603 17:09:45.429285 17324 net.cpp:122] Setting up bn4c_branch2b
I0603 17:09:45.429296 17324 net.cpp:129] Top shape: 1 256 14 14 (50176)
I0603 17:09:45.429301 17324 net.cpp:137] Memory required for data: 192876544
I0603 17:09:45.429312 17324 layer_factory.hpp:77] Creating layer scale4c_branch2b
I0603 17:09:45.429322 17324 net.cpp:84] Creating Layer scale4c_branch2b
I0603 17:09:45.429328 17324 net.cpp:406] scale4c_branch2b <- res4c_branch2b
I0603 17:09:45.429335 17324 net.cpp:367] scale4c_branch2b -> res4c_branch2b (in-place)
I0603 17:09:45.429383 17324 layer_factory.hpp:77] Creating layer scale4c_branch2b
I0603 17:09:45.429499 17324 net.cpp:122] Setting up scale4c_branch2b
I0603 17:09:45.429549 17324 net.cpp:129] Top shape: 1 256 14 14 (50176)
I0603 17:09:45.429558 17324 net.cpp:137] Memory required for data: 193077248
I0603 17:09:45.429569 17324 layer_factory.hpp:77] Creating layer res4c_branch2b_relu
I0603 17:09:45.429579 17324 net.cpp:84] Creating Layer res4c_branch2b_relu
I0603 17:09:45.429587 17324 net.cpp:406] res4c_branch2b_relu <- res4c_branch2b
I0603 17:09:45.429595 17324 net.cpp:367] res4c_branch2b_relu -> res4c_branch2b (in-place)
I0603 17:09:45.429617 17324 net.cpp:122] Setting up res4c_branch2b_relu
I0603 17:09:45.429626 17324 net.cpp:129] Top shape: 1 256 14 14 (50176)
I0603 17:09:45.429631 17324 net.cpp:137] Memory required for data: 193277952
I0603 17:09:45.429637 17324 layer_factory.hpp:77] Creating layer res4c_branch2c
I0603 17:09:45.429646 17324 net.cpp:84] Creating Layer res4c_branch2c
I0603 17:09:45.429654 17324 net.cpp:406] res4c_branch2c <- res4c_branch2b
I0603 17:09:45.429662 17324 net.cpp:380] res4c_branch2c -> res4c_branch2c
I0603 17:09:45.430433 17324 net.cpp:122] Setting up res4c_branch2c
I0603 17:09:45.430449 17324 net.cpp:129] Top shape: 1 1024 14 14 (200704)
I0603 17:09:45.430454 17324 net.cpp:137] Memory required for data: 194080768
I0603 17:09:45.430462 17324 layer_factory.hpp:77] Creating layer bn4c_branch2c
I0603 17:09:45.430470 17324 net.cpp:84] Creating Layer bn4c_branch2c
I0603 17:09:45.430476 17324 net.cpp:406] bn4c_branch2c <- res4c_branch2c
I0603 17:09:45.430485 17324 net.cpp:367] bn4c_branch2c -> res4c_branch2c (in-place)
I0603 17:09:45.430676 17324 net.cpp:122] Setting up bn4c_branch2c
I0603 17:09:45.430688 17324 net.cpp:129] Top shape: 1 1024 14 14 (200704)
I0603 17:09:45.430693 17324 net.cpp:137] Memory required for data: 194883584
I0603 17:09:45.430704 17324 layer_factory.hpp:77] Creating layer scale4c_branch2c
I0603 17:09:45.430714 17324 net.cpp:84] Creating Layer scale4c_branch2c
I0603 17:09:45.430722 17324 net.cpp:406] scale4c_branch2c <- res4c_branch2c
I0603 17:09:45.430730 17324 net.cpp:367] scale4c_branch2c -> res4c_branch2c (in-place)
I0603 17:09:45.430776 17324 layer_factory.hpp:77] Creating layer scale4c_branch2c
I0603 17:09:45.430891 17324 net.cpp:122] Setting up scale4c_branch2c
I0603 17:09:45.430903 17324 net.cpp:129] Top shape: 1 1024 14 14 (200704)
I0603 17:09:45.430908 17324 net.cpp:137] Memory required for data: 195686400
I0603 17:09:45.430917 17324 layer_factory.hpp:77] Creating layer res4c
I0603 17:09:45.430927 17324 net.cpp:84] Creating Layer res4c
I0603 17:09:45.430933 17324 net.cpp:406] res4c <- res4b_res4b_relu_0_split_1
I0603 17:09:45.430940 17324 net.cpp:406] res4c <- res4c_branch2c
I0603 17:09:45.430949 17324 net.cpp:380] res4c -> res4c
I0603 17:09:45.430984 17324 net.cpp:122] Setting up res4c
I0603 17:09:45.430994 17324 net.cpp:129] Top shape: 1 1024 14 14 (200704)
I0603 17:09:45.430999 17324 net.cpp:137] Memory required for data: 196489216
I0603 17:09:45.431004 17324 layer_factory.hpp:77] Creating layer res4c_relu
I0603 17:09:45.431046 17324 net.cpp:84] Creating Layer res4c_relu
I0603 17:09:45.431054 17324 net.cpp:406] res4c_relu <- res4c
I0603 17:09:45.431062 17324 net.cpp:367] res4c_relu -> res4c (in-place)
I0603 17:09:45.431071 17324 net.cpp:122] Setting up res4c_relu
I0603 17:09:45.431078 17324 net.cpp:129] Top shape: 1 1024 14 14 (200704)
I0603 17:09:45.431083 17324 net.cpp:137] Memory required for data: 197292032
I0603 17:09:45.431088 17324 layer_factory.hpp:77] Creating layer res4c_res4c_relu_0_split
I0603 17:09:45.431095 17324 net.cpp:84] Creating Layer res4c_res4c_relu_0_split
I0603 17:09:45.431100 17324 net.cpp:406] res4c_res4c_relu_0_split <- res4c
I0603 17:09:45.431109 17324 net.cpp:380] res4c_res4c_relu_0_split -> res4c_res4c_relu_0_split_0
I0603 17:09:45.431118 17324 net.cpp:380] res4c_res4c_relu_0_split -> res4c_res4c_relu_0_split_1
I0603 17:09:45.431161 17324 net.cpp:122] Setting up res4c_res4c_relu_0_split
I0603 17:09:45.431172 17324 net.cpp:129] Top shape: 1 1024 14 14 (200704)
I0603 17:09:45.431180 17324 net.cpp:129] Top shape: 1 1024 14 14 (200704)
I0603 17:09:45.431183 17324 net.cpp:137] Memory required for data: 198897664
I0603 17:09:45.431190 17324 layer_factory.hpp:77] Creating layer res4d_branch2a
I0603 17:09:45.431197 17324 net.cpp:84] Creating Layer res4d_branch2a
I0603 17:09:45.431203 17324 net.cpp:406] res4d_branch2a <- res4c_res4c_relu_0_split_0
I0603 17:09:45.431212 17324 net.cpp:380] res4d_branch2a -> res4d_branch2a
I0603 17:09:45.431933 17324 net.cpp:122] Setting up res4d_branch2a
I0603 17:09:45.431947 17324 net.cpp:129] Top shape: 1 256 14 14 (50176)
I0603 17:09:45.431953 17324 net.cpp:137] Memory required for data: 199098368
I0603 17:09:45.431962 17324 layer_factory.hpp:77] Creating layer bn4d_branch2a
I0603 17:09:45.431969 17324 net.cpp:84] Creating Layer bn4d_branch2a
I0603 17:09:45.431977 17324 net.cpp:406] bn4d_branch2a <- res4d_branch2a
I0603 17:09:45.431983 17324 net.cpp:367] bn4d_branch2a -> res4d_branch2a (in-place)
I0603 17:09:45.432166 17324 net.cpp:122] Setting up bn4d_branch2a
I0603 17:09:45.432178 17324 net.cpp:129] Top shape: 1 256 14 14 (50176)
I0603 17:09:45.432183 17324 net.cpp:137] Memory required for data: 199299072
I0603 17:09:45.432196 17324 layer_factory.hpp:77] Creating layer scale4d_branch2a
I0603 17:09:45.432206 17324 net.cpp:84] Creating Layer scale4d_branch2a
I0603 17:09:45.432214 17324 net.cpp:406] scale4d_branch2a <- res4d_branch2a
I0603 17:09:45.432221 17324 net.cpp:367] scale4d_branch2a -> res4d_branch2a (in-place)
I0603 17:09:45.432268 17324 layer_factory.hpp:77] Creating layer scale4d_branch2a
I0603 17:09:45.432380 17324 net.cpp:122] Setting up scale4d_branch2a
I0603 17:09:45.432391 17324 net.cpp:129] Top shape: 1 256 14 14 (50176)
I0603 17:09:45.432397 17324 net.cpp:137] Memory required for data: 199499776
I0603 17:09:45.432405 17324 layer_factory.hpp:77] Creating layer res4d_branch2a_relu
I0603 17:09:45.432416 17324 net.cpp:84] Creating Layer res4d_branch2a_relu
I0603 17:09:45.432423 17324 net.cpp:406] res4d_branch2a_relu <- res4d_branch2a
I0603 17:09:45.432431 17324 net.cpp:367] res4d_branch2a_relu -> res4d_branch2a (in-place)
I0603 17:09:45.432440 17324 net.cpp:122] Setting up res4d_branch2a_relu
I0603 17:09:45.432448 17324 net.cpp:129] Top shape: 1 256 14 14 (50176)
I0603 17:09:45.432461 17324 net.cpp:137] Memory required for data: 199700480
I0603 17:09:45.432467 17324 layer_factory.hpp:77] Creating layer res4d_branch2b
I0603 17:09:45.432477 17324 net.cpp:84] Creating Layer res4d_branch2b
I0603 17:09:45.432518 17324 net.cpp:406] res4d_branch2b <- res4d_branch2a
I0603 17:09:45.432528 17324 net.cpp:380] res4d_branch2b -> res4d_branch2b
I0603 17:09:45.433775 17324 net.cpp:122] Setting up res4d_branch2b
I0603 17:09:45.433794 17324 net.cpp:129] Top shape: 1 256 14 14 (50176)
I0603 17:09:45.433799 17324 net.cpp:137] Memory required for data: 199901184
I0603 17:09:45.433806 17324 layer_factory.hpp:77] Creating layer bn4d_branch2b
I0603 17:09:45.433817 17324 net.cpp:84] Creating Layer bn4d_branch2b
I0603 17:09:45.433825 17324 net.cpp:406] bn4d_branch2b <- res4d_branch2b
I0603 17:09:45.433832 17324 net.cpp:367] bn4d_branch2b -> res4d_branch2b (in-place)
I0603 17:09:45.434056 17324 net.cpp:122] Setting up bn4d_branch2b
I0603 17:09:45.434069 17324 net.cpp:129] Top shape: 1 256 14 14 (50176)
I0603 17:09:45.434074 17324 net.cpp:137] Memory required for data: 200101888
I0603 17:09:45.434085 17324 layer_factory.hpp:77] Creating layer scale4d_branch2b
I0603 17:09:45.434098 17324 net.cpp:84] Creating Layer scale4d_branch2b
I0603 17:09:45.434105 17324 net.cpp:406] scale4d_branch2b <- res4d_branch2b
I0603 17:09:45.434113 17324 net.cpp:367] scale4d_branch2b -> res4d_branch2b (in-place)
I0603 17:09:45.434162 17324 layer_factory.hpp:77] Creating layer scale4d_branch2b
I0603 17:09:45.434279 17324 net.cpp:122] Setting up scale4d_branch2b
I0603 17:09:45.434291 17324 net.cpp:129] Top shape: 1 256 14 14 (50176)
I0603 17:09:45.434296 17324 net.cpp:137] Memory required for data: 200302592
I0603 17:09:45.434305 17324 layer_factory.hpp:77] Creating layer res4d_branch2b_relu
I0603 17:09:45.434314 17324 net.cpp:84] Creating Layer res4d_branch2b_relu
I0603 17:09:45.434320 17324 net.cpp:406] res4d_branch2b_relu <- res4d_branch2b
I0603 17:09:45.434327 17324 net.cpp:367] res4d_branch2b_relu -> res4d_branch2b (in-place)
I0603 17:09:45.434336 17324 net.cpp:122] Setting up res4d_branch2b_relu
I0603 17:09:45.434353 17324 net.cpp:129] Top shape: 1 256 14 14 (50176)
I0603 17:09:45.434358 17324 net.cpp:137] Memory required for data: 200503296
I0603 17:09:45.434363 17324 layer_factory.hpp:77] Creating layer res4d_branch2c
I0603 17:09:45.434375 17324 net.cpp:84] Creating Layer res4d_branch2c
I0603 17:09:45.434381 17324 net.cpp:406] res4d_branch2c <- res4d_branch2b
I0603 17:09:45.434392 17324 net.cpp:380] res4d_branch2c -> res4d_branch2c
I0603 17:09:45.435112 17324 net.cpp:122] Setting up res4d_branch2c
I0603 17:09:45.435127 17324 net.cpp:129] Top shape: 1 1024 14 14 (200704)
I0603 17:09:45.435132 17324 net.cpp:137] Memory required for data: 201306112
I0603 17:09:45.435140 17324 layer_factory.hpp:77] Creating layer bn4d_branch2c
I0603 17:09:45.435155 17324 net.cpp:84] Creating Layer bn4d_branch2c
I0603 17:09:45.435161 17324 net.cpp:406] bn4d_branch2c <- res4d_branch2c
I0603 17:09:45.435171 17324 net.cpp:367] bn4d_branch2c -> res4d_branch2c (in-place)
I0603 17:09:45.435364 17324 net.cpp:122] Setting up bn4d_branch2c
I0603 17:09:45.435375 17324 net.cpp:129] Top shape: 1 1024 14 14 (200704)
I0603 17:09:45.435380 17324 net.cpp:137] Memory required for data: 202108928
I0603 17:09:45.435391 17324 layer_factory.hpp:77] Creating layer scale4d_branch2c
I0603 17:09:45.435400 17324 net.cpp:84] Creating Layer scale4d_branch2c
I0603 17:09:45.435407 17324 net.cpp:406] scale4d_branch2c <- res4d_branch2c
I0603 17:09:45.435415 17324 net.cpp:367] scale4d_branch2c -> res4d_branch2c (in-place)
I0603 17:09:45.435462 17324 layer_factory.hpp:77] Creating layer scale4d_branch2c
I0603 17:09:45.435621 17324 net.cpp:122] Setting up scale4d_branch2c
I0603 17:09:45.435633 17324 net.cpp:129] Top shape: 1 1024 14 14 (200704)
I0603 17:09:45.435639 17324 net.cpp:137] Memory required for data: 202911744
I0603 17:09:45.435648 17324 layer_factory.hpp:77] Creating layer res4d
I0603 17:09:45.435657 17324 net.cpp:84] Creating Layer res4d
I0603 17:09:45.435662 17324 net.cpp:406] res4d <- res4c_res4c_relu_0_split_1
I0603 17:09:45.435668 17324 net.cpp:406] res4d <- res4d_branch2c
I0603 17:09:45.435678 17324 net.cpp:380] res4d -> res4d
I0603 17:09:45.435714 17324 net.cpp:122] Setting up res4d
I0603 17:09:45.435724 17324 net.cpp:129] Top shape: 1 1024 14 14 (200704)
I0603 17:09:45.435729 17324 net.cpp:137] Memory required for data: 203714560
I0603 17:09:45.435734 17324 layer_factory.hpp:77] Creating layer res4d_relu
I0603 17:09:45.435744 17324 net.cpp:84] Creating Layer res4d_relu
I0603 17:09:45.435750 17324 net.cpp:406] res4d_relu <- res4d
I0603 17:09:45.435755 17324 net.cpp:367] res4d_relu -> res4d (in-place)
I0603 17:09:45.435772 17324 net.cpp:122] Setting up res4d_relu
I0603 17:09:45.435780 17324 net.cpp:129] Top shape: 1 1024 14 14 (200704)
I0603 17:09:45.435786 17324 net.cpp:137] Memory required for data: 204517376
I0603 17:09:45.435791 17324 layer_factory.hpp:77] Creating layer res4d_res4d_relu_0_split
I0603 17:09:45.435799 17324 net.cpp:84] Creating Layer res4d_res4d_relu_0_split
I0603 17:09:45.435813 17324 net.cpp:406] res4d_res4d_relu_0_split <- res4d
I0603 17:09:45.435820 17324 net.cpp:380] res4d_res4d_relu_0_split -> res4d_res4d_relu_0_split_0
I0603 17:09:45.435828 17324 net.cpp:380] res4d_res4d_relu_0_split -> res4d_res4d_relu_0_split_1
I0603 17:09:45.435863 17324 net.cpp:122] Setting up res4d_res4d_relu_0_split
I0603 17:09:45.435873 17324 net.cpp:129] Top shape: 1 1024 14 14 (200704)
I0603 17:09:45.435878 17324 net.cpp:129] Top shape: 1 1024 14 14 (200704)
I0603 17:09:45.435883 17324 net.cpp:137] Memory required for data: 206123008
I0603 17:09:45.435889 17324 layer_factory.hpp:77] Creating layer res4e_branch2a
I0603 17:09:45.435897 17324 net.cpp:84] Creating Layer res4e_branch2a
I0603 17:09:45.435902 17324 net.cpp:406] res4e_branch2a <- res4d_res4d_relu_0_split_0
I0603 17:09:45.435911 17324 net.cpp:380] res4e_branch2a -> res4e_branch2a
I0603 17:09:45.436640 17324 net.cpp:122] Setting up res4e_branch2a
I0603 17:09:45.436653 17324 net.cpp:129] Top shape: 1 256 14 14 (50176)
I0603 17:09:45.436660 17324 net.cpp:137] Memory required for data: 206323712
I0603 17:09:45.436667 17324 layer_factory.hpp:77] Creating layer bn4e_branch2a
I0603 17:09:45.436676 17324 net.cpp:84] Creating Layer bn4e_branch2a
I0603 17:09:45.436681 17324 net.cpp:406] bn4e_branch2a <- res4e_branch2a
I0603 17:09:45.436688 17324 net.cpp:367] bn4e_branch2a -> res4e_branch2a (in-place)
I0603 17:09:45.436873 17324 net.cpp:122] Setting up bn4e_branch2a
I0603 17:09:45.436885 17324 net.cpp:129] Top shape: 1 256 14 14 (50176)
I0603 17:09:45.436890 17324 net.cpp:137] Memory required for data: 206524416
I0603 17:09:45.436902 17324 layer_factory.hpp:77] Creating layer scale4e_branch2a
I0603 17:09:45.436909 17324 net.cpp:84] Creating Layer scale4e_branch2a
I0603 17:09:45.436915 17324 net.cpp:406] scale4e_branch2a <- res4e_branch2a
I0603 17:09:45.436923 17324 net.cpp:367] scale4e_branch2a -> res4e_branch2a (in-place)
I0603 17:09:45.436964 17324 layer_factory.hpp:77] Creating layer scale4e_branch2a
I0603 17:09:45.437083 17324 net.cpp:122] Setting up scale4e_branch2a
I0603 17:09:45.437094 17324 net.cpp:129] Top shape: 1 256 14 14 (50176)
I0603 17:09:45.437100 17324 net.cpp:137] Memory required for data: 206725120
I0603 17:09:45.437109 17324 layer_factory.hpp:77] Creating layer res4e_branch2a_relu
I0603 17:09:45.437119 17324 net.cpp:84] Creating Layer res4e_branch2a_relu
I0603 17:09:45.437124 17324 net.cpp:406] res4e_branch2a_relu <- res4e_branch2a
I0603 17:09:45.437131 17324 net.cpp:367] res4e_branch2a_relu -> res4e_branch2a (in-place)
I0603 17:09:45.437149 17324 net.cpp:122] Setting up res4e_branch2a_relu
I0603 17:09:45.437155 17324 net.cpp:129] Top shape: 1 256 14 14 (50176)
I0603 17:09:45.437160 17324 net.cpp:137] Memory required for data: 206925824
I0603 17:09:45.437165 17324 layer_factory.hpp:77] Creating layer res4e_branch2b
I0603 17:09:45.437175 17324 net.cpp:84] Creating Layer res4e_branch2b
I0603 17:09:45.437182 17324 net.cpp:406] res4e_branch2b <- res4e_branch2a
I0603 17:09:45.437189 17324 net.cpp:380] res4e_branch2b -> res4e_branch2b
I0603 17:09:45.438462 17324 net.cpp:122] Setting up res4e_branch2b
I0603 17:09:45.438478 17324 net.cpp:129] Top shape: 1 256 14 14 (50176)
I0603 17:09:45.438484 17324 net.cpp:137] Memory required for data: 207126528
I0603 17:09:45.438493 17324 layer_factory.hpp:77] Creating layer bn4e_branch2b
I0603 17:09:45.438506 17324 net.cpp:84] Creating Layer bn4e_branch2b
I0603 17:09:45.438515 17324 net.cpp:406] bn4e_branch2b <- res4e_branch2b
I0603 17:09:45.438524 17324 net.cpp:367] bn4e_branch2b -> res4e_branch2b (in-place)
I0603 17:09:45.438722 17324 net.cpp:122] Setting up bn4e_branch2b
I0603 17:09:45.438735 17324 net.cpp:129] Top shape: 1 256 14 14 (50176)
I0603 17:09:45.438740 17324 net.cpp:137] Memory required for data: 207327232
I0603 17:09:45.438751 17324 layer_factory.hpp:77] Creating layer scale4e_branch2b
I0603 17:09:45.438763 17324 net.cpp:84] Creating Layer scale4e_branch2b
I0603 17:09:45.438769 17324 net.cpp:406] scale4e_branch2b <- res4e_branch2b
I0603 17:09:45.438777 17324 net.cpp:367] scale4e_branch2b -> res4e_branch2b (in-place)
I0603 17:09:45.438833 17324 layer_factory.hpp:77] Creating layer scale4e_branch2b
I0603 17:09:45.438956 17324 net.cpp:122] Setting up scale4e_branch2b
I0603 17:09:45.438967 17324 net.cpp:129] Top shape: 1 256 14 14 (50176)
I0603 17:09:45.438973 17324 net.cpp:137] Memory required for data: 207527936
I0603 17:09:45.438982 17324 layer_factory.hpp:77] Creating layer res4e_branch2b_relu
I0603 17:09:45.438990 17324 net.cpp:84] Creating Layer res4e_branch2b_relu
I0603 17:09:45.438997 17324 net.cpp:406] res4e_branch2b_relu <- res4e_branch2b
I0603 17:09:45.439004 17324 net.cpp:367] res4e_branch2b_relu -> res4e_branch2b (in-place)
I0603 17:09:45.439013 17324 net.cpp:122] Setting up res4e_branch2b_relu
I0603 17:09:45.439020 17324 net.cpp:129] Top shape: 1 256 14 14 (50176)
I0603 17:09:45.439026 17324 net.cpp:137] Memory required for data: 207728640
I0603 17:09:45.439031 17324 layer_factory.hpp:77] Creating layer res4e_branch2c
I0603 17:09:45.439043 17324 net.cpp:84] Creating Layer res4e_branch2c
I0603 17:09:45.439050 17324 net.cpp:406] res4e_branch2c <- res4e_branch2b
I0603 17:09:45.439069 17324 net.cpp:380] res4e_branch2c -> res4e_branch2c
I0603 17:09:45.439862 17324 net.cpp:122] Setting up res4e_branch2c
I0603 17:09:45.439878 17324 net.cpp:129] Top shape: 1 1024 14 14 (200704)
I0603 17:09:45.439883 17324 net.cpp:137] Memory required for data: 208531456
I0603 17:09:45.439891 17324 layer_factory.hpp:77] Creating layer bn4e_branch2c
I0603 17:09:45.439899 17324 net.cpp:84] Creating Layer bn4e_branch2c
I0603 17:09:45.439905 17324 net.cpp:406] bn4e_branch2c <- res4e_branch2c
I0603 17:09:45.439915 17324 net.cpp:367] bn4e_branch2c -> res4e_branch2c (in-place)
I0603 17:09:45.440105 17324 net.cpp:122] Setting up bn4e_branch2c
I0603 17:09:45.440117 17324 net.cpp:129] Top shape: 1 1024 14 14 (200704)
I0603 17:09:45.440122 17324 net.cpp:137] Memory required for data: 209334272
I0603 17:09:45.440134 17324 layer_factory.hpp:77] Creating layer scale4e_branch2c
I0603 17:09:45.440141 17324 net.cpp:84] Creating Layer scale4e_branch2c
I0603 17:09:45.440147 17324 net.cpp:406] scale4e_branch2c <- res4e_branch2c
I0603 17:09:45.440155 17324 net.cpp:367] scale4e_branch2c -> res4e_branch2c (in-place)
I0603 17:09:45.440202 17324 layer_factory.hpp:77] Creating layer scale4e_branch2c
I0603 17:09:45.440318 17324 net.cpp:122] Setting up scale4e_branch2c
I0603 17:09:45.440330 17324 net.cpp:129] Top shape: 1 1024 14 14 (200704)
I0603 17:09:45.440335 17324 net.cpp:137] Memory required for data: 210137088
I0603 17:09:45.440345 17324 layer_factory.hpp:77] Creating layer res4e
I0603 17:09:45.440354 17324 net.cpp:84] Creating Layer res4e
I0603 17:09:45.440361 17324 net.cpp:406] res4e <- res4d_res4d_relu_0_split_1
I0603 17:09:45.440367 17324 net.cpp:406] res4e <- res4e_branch2c
I0603 17:09:45.440374 17324 net.cpp:380] res4e -> res4e
I0603 17:09:45.440407 17324 net.cpp:122] Setting up res4e
I0603 17:09:45.440420 17324 net.cpp:129] Top shape: 1 1024 14 14 (200704)
I0603 17:09:45.440425 17324 net.cpp:137] Memory required for data: 210939904
I0603 17:09:45.440430 17324 layer_factory.hpp:77] Creating layer res4e_relu
I0603 17:09:45.440438 17324 net.cpp:84] Creating Layer res4e_relu
I0603 17:09:45.440443 17324 net.cpp:406] res4e_relu <- res4e
I0603 17:09:45.440450 17324 net.cpp:367] res4e_relu -> res4e (in-place)
I0603 17:09:45.440459 17324 net.cpp:122] Setting up res4e_relu
I0603 17:09:45.440464 17324 net.cpp:129] Top shape: 1 1024 14 14 (200704)
I0603 17:09:45.440469 17324 net.cpp:137] Memory required for data: 211742720
I0603 17:09:45.440474 17324 layer_factory.hpp:77] Creating layer res4e_res4e_relu_0_split
I0603 17:09:45.440481 17324 net.cpp:84] Creating Layer res4e_res4e_relu_0_split
I0603 17:09:45.440486 17324 net.cpp:406] res4e_res4e_relu_0_split <- res4e
I0603 17:09:45.440493 17324 net.cpp:380] res4e_res4e_relu_0_split -> res4e_res4e_relu_0_split_0
I0603 17:09:45.440501 17324 net.cpp:380] res4e_res4e_relu_0_split -> res4e_res4e_relu_0_split_1
I0603 17:09:45.440536 17324 net.cpp:122] Setting up res4e_res4e_relu_0_split
I0603 17:09:45.440546 17324 net.cpp:129] Top shape: 1 1024 14 14 (200704)
I0603 17:09:45.440552 17324 net.cpp:129] Top shape: 1 1024 14 14 (200704)
I0603 17:09:45.440557 17324 net.cpp:137] Memory required for data: 213348352
I0603 17:09:45.440562 17324 layer_factory.hpp:77] Creating layer res4f_branch2a
I0603 17:09:45.440578 17324 net.cpp:84] Creating Layer res4f_branch2a
I0603 17:09:45.440587 17324 net.cpp:406] res4f_branch2a <- res4e_res4e_relu_0_split_0
I0603 17:09:45.440594 17324 net.cpp:380] res4f_branch2a -> res4f_branch2a
I0603 17:09:45.441362 17324 net.cpp:122] Setting up res4f_branch2a
I0603 17:09:45.441377 17324 net.cpp:129] Top shape: 1 256 14 14 (50176)
I0603 17:09:45.441382 17324 net.cpp:137] Memory required for data: 213549056
I0603 17:09:45.441390 17324 layer_factory.hpp:77] Creating layer bn4f_branch2a
I0603 17:09:45.441398 17324 net.cpp:84] Creating Layer bn4f_branch2a
I0603 17:09:45.441404 17324 net.cpp:406] bn4f_branch2a <- res4f_branch2a
I0603 17:09:45.441419 17324 net.cpp:367] bn4f_branch2a -> res4f_branch2a (in-place)
I0603 17:09:45.441601 17324 net.cpp:122] Setting up bn4f_branch2a
I0603 17:09:45.441613 17324 net.cpp:129] Top shape: 1 256 14 14 (50176)
I0603 17:09:45.441618 17324 net.cpp:137] Memory required for data: 213749760
I0603 17:09:45.441629 17324 layer_factory.hpp:77] Creating layer scale4f_branch2a
I0603 17:09:45.441639 17324 net.cpp:84] Creating Layer scale4f_branch2a
I0603 17:09:45.441645 17324 net.cpp:406] scale4f_branch2a <- res4f_branch2a
I0603 17:09:45.441660 17324 net.cpp:367] scale4f_branch2a -> res4f_branch2a (in-place)
I0603 17:09:45.441704 17324 layer_factory.hpp:77] Creating layer scale4f_branch2a
I0603 17:09:45.441817 17324 net.cpp:122] Setting up scale4f_branch2a
I0603 17:09:45.441828 17324 net.cpp:129] Top shape: 1 256 14 14 (50176)
I0603 17:09:45.441833 17324 net.cpp:137] Memory required for data: 213950464
I0603 17:09:45.441843 17324 layer_factory.hpp:77] Creating layer res4f_branch2a_relu
I0603 17:09:45.441851 17324 net.cpp:84] Creating Layer res4f_branch2a_relu
I0603 17:09:45.441859 17324 net.cpp:406] res4f_branch2a_relu <- res4f_branch2a
I0603 17:09:45.441874 17324 net.cpp:367] res4f_branch2a_relu -> res4f_branch2a (in-place)
I0603 17:09:45.441884 17324 net.cpp:122] Setting up res4f_branch2a_relu
I0603 17:09:45.441890 17324 net.cpp:129] Top shape: 1 256 14 14 (50176)
I0603 17:09:45.441895 17324 net.cpp:137] Memory required for data: 214151168
I0603 17:09:45.441900 17324 layer_factory.hpp:77] Creating layer res4f_branch2b
I0603 17:09:45.441910 17324 net.cpp:84] Creating Layer res4f_branch2b
I0603 17:09:45.441915 17324 net.cpp:406] res4f_branch2b <- res4f_branch2a
I0603 17:09:45.441922 17324 net.cpp:380] res4f_branch2b -> res4f_branch2b
I0603 17:09:45.443178 17324 net.cpp:122] Setting up res4f_branch2b
I0603 17:09:45.443202 17324 net.cpp:129] Top shape: 1 256 14 14 (50176)
I0603 17:09:45.443207 17324 net.cpp:137] Memory required for data: 214351872
I0603 17:09:45.443215 17324 layer_factory.hpp:77] Creating layer bn4f_branch2b
I0603 17:09:45.443225 17324 net.cpp:84] Creating Layer bn4f_branch2b
I0603 17:09:45.443231 17324 net.cpp:406] bn4f_branch2b <- res4f_branch2b
I0603 17:09:45.443239 17324 net.cpp:367] bn4f_branch2b -> res4f_branch2b (in-place)
I0603 17:09:45.443423 17324 net.cpp:122] Setting up bn4f_branch2b
I0603 17:09:45.443434 17324 net.cpp:129] Top shape: 1 256 14 14 (50176)
I0603 17:09:45.443439 17324 net.cpp:137] Memory required for data: 214552576
I0603 17:09:45.443449 17324 layer_factory.hpp:77] Creating layer scale4f_branch2b
I0603 17:09:45.443459 17324 net.cpp:84] Creating Layer scale4f_branch2b
I0603 17:09:45.443465 17324 net.cpp:406] scale4f_branch2b <- res4f_branch2b
I0603 17:09:45.443472 17324 net.cpp:367] scale4f_branch2b -> res4f_branch2b (in-place)
I0603 17:09:45.443522 17324 layer_factory.hpp:77] Creating layer scale4f_branch2b
I0603 17:09:45.443637 17324 net.cpp:122] Setting up scale4f_branch2b
I0603 17:09:45.443650 17324 net.cpp:129] Top shape: 1 256 14 14 (50176)
I0603 17:09:45.443655 17324 net.cpp:137] Memory required for data: 214753280
I0603 17:09:45.443662 17324 layer_factory.hpp:77] Creating layer res4f_branch2b_relu
I0603 17:09:45.443670 17324 net.cpp:84] Creating Layer res4f_branch2b_relu
I0603 17:09:45.443676 17324 net.cpp:406] res4f_branch2b_relu <- res4f_branch2b
I0603 17:09:45.443686 17324 net.cpp:367] res4f_branch2b_relu -> res4f_branch2b (in-place)
I0603 17:09:45.443693 17324 net.cpp:122] Setting up res4f_branch2b_relu
I0603 17:09:45.443708 17324 net.cpp:129] Top shape: 1 256 14 14 (50176)
I0603 17:09:45.443713 17324 net.cpp:137] Memory required for data: 214953984
I0603 17:09:45.443719 17324 layer_factory.hpp:77] Creating layer res4f_branch2c
I0603 17:09:45.443727 17324 net.cpp:84] Creating Layer res4f_branch2c
I0603 17:09:45.443733 17324 net.cpp:406] res4f_branch2c <- res4f_branch2b
I0603 17:09:45.443742 17324 net.cpp:380] res4f_branch2c -> res4f_branch2c
I0603 17:09:45.444494 17324 net.cpp:122] Setting up res4f_branch2c
I0603 17:09:45.444509 17324 net.cpp:129] Top shape: 1 1024 14 14 (200704)
I0603 17:09:45.444514 17324 net.cpp:137] Memory required for data: 215756800
I0603 17:09:45.444522 17324 layer_factory.hpp:77] Creating layer bn4f_branch2c
I0603 17:09:45.444530 17324 net.cpp:84] Creating Layer bn4f_branch2c
I0603 17:09:45.444535 17324 net.cpp:406] bn4f_branch2c <- res4f_branch2c
I0603 17:09:45.444545 17324 net.cpp:367] bn4f_branch2c -> res4f_branch2c (in-place)
I0603 17:09:45.444735 17324 net.cpp:122] Setting up bn4f_branch2c
I0603 17:09:45.444746 17324 net.cpp:129] Top shape: 1 1024 14 14 (200704)
I0603 17:09:45.444751 17324 net.cpp:137] Memory required for data: 216559616
I0603 17:09:45.444804 17324 layer_factory.hpp:77] Creating layer scale4f_branch2c
I0603 17:09:45.444815 17324 net.cpp:84] Creating Layer scale4f_branch2c
I0603 17:09:45.444821 17324 net.cpp:406] scale4f_branch2c <- res4f_branch2c
I0603 17:09:45.444828 17324 net.cpp:367] scale4f_branch2c -> res4f_branch2c (in-place)
I0603 17:09:45.444869 17324 layer_factory.hpp:77] Creating layer scale4f_branch2c
I0603 17:09:45.444986 17324 net.cpp:122] Setting up scale4f_branch2c
I0603 17:09:45.444998 17324 net.cpp:129] Top shape: 1 1024 14 14 (200704)
I0603 17:09:45.445003 17324 net.cpp:137] Memory required for data: 217362432
I0603 17:09:45.445011 17324 layer_factory.hpp:77] Creating layer res4f
I0603 17:09:45.445021 17324 net.cpp:84] Creating Layer res4f
I0603 17:09:45.445035 17324 net.cpp:406] res4f <- res4e_res4e_relu_0_split_1
I0603 17:09:45.445042 17324 net.cpp:406] res4f <- res4f_branch2c
I0603 17:09:45.445050 17324 net.cpp:380] res4f -> res4f
I0603 17:09:45.445078 17324 net.cpp:122] Setting up res4f
I0603 17:09:45.445087 17324 net.cpp:129] Top shape: 1 1024 14 14 (200704)
I0603 17:09:45.445093 17324 net.cpp:137] Memory required for data: 218165248
I0603 17:09:45.445097 17324 layer_factory.hpp:77] Creating layer res4f_relu
I0603 17:09:45.445104 17324 net.cpp:84] Creating Layer res4f_relu
I0603 17:09:45.445118 17324 net.cpp:406] res4f_relu <- res4f
I0603 17:09:45.445127 17324 net.cpp:367] res4f_relu -> res4f (in-place)
I0603 17:09:45.445137 17324 net.cpp:122] Setting up res4f_relu
I0603 17:09:45.445142 17324 net.cpp:129] Top shape: 1 1024 14 14 (200704)
I0603 17:09:45.445157 17324 net.cpp:137] Memory required for data: 218968064
I0603 17:09:45.445161 17324 layer_factory.hpp:77] Creating layer res4f_res4f_relu_0_split
I0603 17:09:45.445168 17324 net.cpp:84] Creating Layer res4f_res4f_relu_0_split
I0603 17:09:45.445173 17324 net.cpp:406] res4f_res4f_relu_0_split <- res4f
I0603 17:09:45.445180 17324 net.cpp:380] res4f_res4f_relu_0_split -> res4f_res4f_relu_0_split_0
I0603 17:09:45.445188 17324 net.cpp:380] res4f_res4f_relu_0_split -> res4f_res4f_relu_0_split_1
I0603 17:09:45.445227 17324 net.cpp:122] Setting up res4f_res4f_relu_0_split
I0603 17:09:45.445236 17324 net.cpp:129] Top shape: 1 1024 14 14 (200704)
I0603 17:09:45.445243 17324 net.cpp:129] Top shape: 1 1024 14 14 (200704)
I0603 17:09:45.445247 17324 net.cpp:137] Memory required for data: 220573696
I0603 17:09:45.445252 17324 layer_factory.hpp:77] Creating layer res5a_branch1
I0603 17:09:45.445261 17324 net.cpp:84] Creating Layer res5a_branch1
I0603 17:09:45.445266 17324 net.cpp:406] res5a_branch1 <- res4f_res4f_relu_0_split_0
I0603 17:09:45.445274 17324 net.cpp:380] res5a_branch1 -> res5a_branch1
I0603 17:09:45.449537 17324 net.cpp:122] Setting up res5a_branch1
I0603 17:09:45.449585 17324 net.cpp:129] Top shape: 1 2048 7 7 (100352)
I0603 17:09:45.449592 17324 net.cpp:137] Memory required for data: 220975104
I0603 17:09:45.449605 17324 layer_factory.hpp:77] Creating layer bn5a_branch1
I0603 17:09:45.449622 17324 net.cpp:84] Creating Layer bn5a_branch1
I0603 17:09:45.449631 17324 net.cpp:406] bn5a_branch1 <- res5a_branch1
I0603 17:09:45.449645 17324 net.cpp:367] bn5a_branch1 -> res5a_branch1 (in-place)
I0603 17:09:45.449879 17324 net.cpp:122] Setting up bn5a_branch1
I0603 17:09:45.449893 17324 net.cpp:129] Top shape: 1 2048 7 7 (100352)
I0603 17:09:45.449899 17324 net.cpp:137] Memory required for data: 221376512
I0603 17:09:45.449913 17324 layer_factory.hpp:77] Creating layer scale5a_branch1
I0603 17:09:45.449926 17324 net.cpp:84] Creating Layer scale5a_branch1
I0603 17:09:45.449934 17324 net.cpp:406] scale5a_branch1 <- res5a_branch1
I0603 17:09:45.449942 17324 net.cpp:367] scale5a_branch1 -> res5a_branch1 (in-place)
I0603 17:09:45.449995 17324 layer_factory.hpp:77] Creating layer scale5a_branch1
I0603 17:09:45.450136 17324 net.cpp:122] Setting up scale5a_branch1
I0603 17:09:45.450150 17324 net.cpp:129] Top shape: 1 2048 7 7 (100352)
I0603 17:09:45.450155 17324 net.cpp:137] Memory required for data: 221777920
I0603 17:09:45.450166 17324 layer_factory.hpp:77] Creating layer res5a_branch2a
I0603 17:09:45.450182 17324 net.cpp:84] Creating Layer res5a_branch2a
I0603 17:09:45.450191 17324 net.cpp:406] res5a_branch2a <- res4f_res4f_relu_0_split_1
I0603 17:09:45.450199 17324 net.cpp:380] res5a_branch2a -> res5a_branch2a
I0603 17:09:45.451514 17324 net.cpp:122] Setting up res5a_branch2a
I0603 17:09:45.451530 17324 net.cpp:129] Top shape: 1 512 7 7 (25088)
I0603 17:09:45.451535 17324 net.cpp:137] Memory required for data: 221878272
I0603 17:09:45.451544 17324 layer_factory.hpp:77] Creating layer bn5a_branch2a
I0603 17:09:45.451552 17324 net.cpp:84] Creating Layer bn5a_branch2a
I0603 17:09:45.451557 17324 net.cpp:406] bn5a_branch2a <- res5a_branch2a
I0603 17:09:45.451567 17324 net.cpp:367] bn5a_branch2a -> res5a_branch2a (in-place)
I0603 17:09:45.451762 17324 net.cpp:122] Setting up bn5a_branch2a
I0603 17:09:45.451773 17324 net.cpp:129] Top shape: 1 512 7 7 (25088)
I0603 17:09:45.451779 17324 net.cpp:137] Memory required for data: 221978624
I0603 17:09:45.451789 17324 layer_factory.hpp:77] Creating layer scale5a_branch2a
I0603 17:09:45.451797 17324 net.cpp:84] Creating Layer scale5a_branch2a
I0603 17:09:45.451803 17324 net.cpp:406] scale5a_branch2a <- res5a_branch2a
I0603 17:09:45.451810 17324 net.cpp:367] scale5a_branch2a -> res5a_branch2a (in-place)
I0603 17:09:45.451858 17324 layer_factory.hpp:77] Creating layer scale5a_branch2a
I0603 17:09:45.451977 17324 net.cpp:122] Setting up scale5a_branch2a
I0603 17:09:45.451988 17324 net.cpp:129] Top shape: 1 512 7 7 (25088)
I0603 17:09:45.451993 17324 net.cpp:137] Memory required for data: 222078976
I0603 17:09:45.452003 17324 layer_factory.hpp:77] Creating layer res5a_branch2a_relu
I0603 17:09:45.452010 17324 net.cpp:84] Creating Layer res5a_branch2a_relu
I0603 17:09:45.452016 17324 net.cpp:406] res5a_branch2a_relu <- res5a_branch2a
I0603 17:09:45.452024 17324 net.cpp:367] res5a_branch2a_relu -> res5a_branch2a (in-place)
I0603 17:09:45.452033 17324 net.cpp:122] Setting up res5a_branch2a_relu
I0603 17:09:45.452049 17324 net.cpp:129] Top shape: 1 512 7 7 (25088)
I0603 17:09:45.452054 17324 net.cpp:137] Memory required for data: 222179328
I0603 17:09:45.452059 17324 layer_factory.hpp:77] Creating layer res5a_branch2b
I0603 17:09:45.452069 17324 net.cpp:84] Creating Layer res5a_branch2b
I0603 17:09:45.452074 17324 net.cpp:406] res5a_branch2b <- res5a_branch2a
I0603 17:09:45.452082 17324 net.cpp:380] res5a_branch2b -> res5a_branch2b
I0603 17:09:45.457139 17324 net.cpp:122] Setting up res5a_branch2b
I0603 17:09:45.457188 17324 net.cpp:129] Top shape: 1 512 7 7 (25088)
I0603 17:09:45.457196 17324 net.cpp:137] Memory required for data: 222279680
I0603 17:09:45.457211 17324 layer_factory.hpp:77] Creating layer bn5a_branch2b
I0603 17:09:45.457226 17324 net.cpp:84] Creating Layer bn5a_branch2b
I0603 17:09:45.457235 17324 net.cpp:406] bn5a_branch2b <- res5a_branch2b
I0603 17:09:45.457247 17324 net.cpp:367] bn5a_branch2b -> res5a_branch2b (in-place)
I0603 17:09:45.457486 17324 net.cpp:122] Setting up bn5a_branch2b
I0603 17:09:45.457500 17324 net.cpp:129] Top shape: 1 512 7 7 (25088)
I0603 17:09:45.457506 17324 net.cpp:137] Memory required for data: 222380032
I0603 17:09:45.457518 17324 layer_factory.hpp:77] Creating layer scale5a_branch2b
I0603 17:09:45.457532 17324 net.cpp:84] Creating Layer scale5a_branch2b
I0603 17:09:45.457540 17324 net.cpp:406] scale5a_branch2b <- res5a_branch2b
I0603 17:09:45.457548 17324 net.cpp:367] scale5a_branch2b -> res5a_branch2b (in-place)
I0603 17:09:45.457697 17324 layer_factory.hpp:77] Creating layer scale5a_branch2b
I0603 17:09:45.457850 17324 net.cpp:122] Setting up scale5a_branch2b
I0603 17:09:45.457864 17324 net.cpp:129] Top shape: 1 512 7 7 (25088)
I0603 17:09:45.457870 17324 net.cpp:137] Memory required for data: 222480384
I0603 17:09:45.457880 17324 layer_factory.hpp:77] Creating layer res5a_branch2b_relu
I0603 17:09:45.457890 17324 net.cpp:84] Creating Layer res5a_branch2b_relu
I0603 17:09:45.457895 17324 net.cpp:406] res5a_branch2b_relu <- res5a_branch2b
I0603 17:09:45.457906 17324 net.cpp:367] res5a_branch2b_relu -> res5a_branch2b (in-place)
I0603 17:09:45.457924 17324 net.cpp:122] Setting up res5a_branch2b_relu
I0603 17:09:45.457932 17324 net.cpp:129] Top shape: 1 512 7 7 (25088)
I0603 17:09:45.457938 17324 net.cpp:137] Memory required for data: 222580736
I0603 17:09:45.457944 17324 layer_factory.hpp:77] Creating layer res5a_branch2c
I0603 17:09:45.457958 17324 net.cpp:84] Creating Layer res5a_branch2c
I0603 17:09:45.457967 17324 net.cpp:406] res5a_branch2c <- res5a_branch2b
I0603 17:09:45.457976 17324 net.cpp:380] res5a_branch2c -> res5a_branch2c
I0603 17:09:45.460153 17324 net.cpp:122] Setting up res5a_branch2c
I0603 17:09:45.460177 17324 net.cpp:129] Top shape: 1 2048 7 7 (100352)
I0603 17:09:45.460183 17324 net.cpp:137] Memory required for data: 222982144
I0603 17:09:45.460192 17324 layer_factory.hpp:77] Creating layer bn5a_branch2c
I0603 17:09:45.460204 17324 net.cpp:84] Creating Layer bn5a_branch2c
I0603 17:09:45.460211 17324 net.cpp:406] bn5a_branch2c <- res5a_branch2c
I0603 17:09:45.460218 17324 net.cpp:367] bn5a_branch2c -> res5a_branch2c (in-place)
I0603 17:09:45.460433 17324 net.cpp:122] Setting up bn5a_branch2c
I0603 17:09:45.460445 17324 net.cpp:129] Top shape: 1 2048 7 7 (100352)
I0603 17:09:45.460450 17324 net.cpp:137] Memory required for data: 223383552
I0603 17:09:45.460461 17324 layer_factory.hpp:77] Creating layer scale5a_branch2c
I0603 17:09:45.460470 17324 net.cpp:84] Creating Layer scale5a_branch2c
I0603 17:09:45.460476 17324 net.cpp:406] scale5a_branch2c <- res5a_branch2c
I0603 17:09:45.460485 17324 net.cpp:367] scale5a_branch2c -> res5a_branch2c (in-place)
I0603 17:09:45.460535 17324 layer_factory.hpp:77] Creating layer scale5a_branch2c
I0603 17:09:45.460703 17324 net.cpp:122] Setting up scale5a_branch2c
I0603 17:09:45.460717 17324 net.cpp:129] Top shape: 1 2048 7 7 (100352)
I0603 17:09:45.460723 17324 net.cpp:137] Memory required for data: 223784960
I0603 17:09:45.460732 17324 layer_factory.hpp:77] Creating layer res5a
I0603 17:09:45.460741 17324 net.cpp:84] Creating Layer res5a
I0603 17:09:45.460747 17324 net.cpp:406] res5a <- res5a_branch1
I0603 17:09:45.460752 17324 net.cpp:406] res5a <- res5a_branch2c
I0603 17:09:45.460760 17324 net.cpp:380] res5a -> res5a
I0603 17:09:45.460798 17324 net.cpp:122] Setting up res5a
I0603 17:09:45.460809 17324 net.cpp:129] Top shape: 1 2048 7 7 (100352)
I0603 17:09:45.460814 17324 net.cpp:137] Memory required for data: 224186368
I0603 17:09:45.460819 17324 layer_factory.hpp:77] Creating layer res5a_relu
I0603 17:09:45.460826 17324 net.cpp:84] Creating Layer res5a_relu
I0603 17:09:45.460832 17324 net.cpp:406] res5a_relu <- res5a
I0603 17:09:45.460840 17324 net.cpp:367] res5a_relu -> res5a (in-place)
I0603 17:09:45.460850 17324 net.cpp:122] Setting up res5a_relu
I0603 17:09:45.460857 17324 net.cpp:129] Top shape: 1 2048 7 7 (100352)
I0603 17:09:45.460862 17324 net.cpp:137] Memory required for data: 224587776
I0603 17:09:45.460867 17324 layer_factory.hpp:77] Creating layer res5a_res5a_relu_0_split
I0603 17:09:45.460875 17324 net.cpp:84] Creating Layer res5a_res5a_relu_0_split
I0603 17:09:45.460880 17324 net.cpp:406] res5a_res5a_relu_0_split <- res5a
I0603 17:09:45.460886 17324 net.cpp:380] res5a_res5a_relu_0_split -> res5a_res5a_relu_0_split_0
I0603 17:09:45.460894 17324 net.cpp:380] res5a_res5a_relu_0_split -> res5a_res5a_relu_0_split_1
I0603 17:09:45.460933 17324 net.cpp:122] Setting up res5a_res5a_relu_0_split
I0603 17:09:45.460943 17324 net.cpp:129] Top shape: 1 2048 7 7 (100352)
I0603 17:09:45.460950 17324 net.cpp:129] Top shape: 1 2048 7 7 (100352)
I0603 17:09:45.460955 17324 net.cpp:137] Memory required for data: 225390592
I0603 17:09:45.460960 17324 layer_factory.hpp:77] Creating layer res5b_branch2a
I0603 17:09:45.460971 17324 net.cpp:84] Creating Layer res5b_branch2a
I0603 17:09:45.460978 17324 net.cpp:406] res5b_branch2a <- res5a_res5a_relu_0_split_0
I0603 17:09:45.460986 17324 net.cpp:380] res5b_branch2a -> res5b_branch2a
I0603 17:09:45.463059 17324 net.cpp:122] Setting up res5b_branch2a
I0603 17:09:45.463088 17324 net.cpp:129] Top shape: 1 512 7 7 (25088)
I0603 17:09:45.463094 17324 net.cpp:137] Memory required for data: 225490944
I0603 17:09:45.463104 17324 layer_factory.hpp:77] Creating layer bn5b_branch2a
I0603 17:09:45.463114 17324 net.cpp:84] Creating Layer bn5b_branch2a
I0603 17:09:45.463129 17324 net.cpp:406] bn5b_branch2a <- res5b_branch2a
I0603 17:09:45.463188 17324 net.cpp:367] bn5b_branch2a -> res5b_branch2a (in-place)
I0603 17:09:45.463387 17324 net.cpp:122] Setting up bn5b_branch2a
I0603 17:09:45.463398 17324 net.cpp:129] Top shape: 1 512 7 7 (25088)
I0603 17:09:45.463403 17324 net.cpp:137] Memory required for data: 225591296
I0603 17:09:45.463414 17324 layer_factory.hpp:77] Creating layer scale5b_branch2a
I0603 17:09:45.463424 17324 net.cpp:84] Creating Layer scale5b_branch2a
I0603 17:09:45.463430 17324 net.cpp:406] scale5b_branch2a <- res5b_branch2a
I0603 17:09:45.463438 17324 net.cpp:367] scale5b_branch2a -> res5b_branch2a (in-place)
I0603 17:09:45.463480 17324 layer_factory.hpp:77] Creating layer scale5b_branch2a
I0603 17:09:45.463596 17324 net.cpp:122] Setting up scale5b_branch2a
I0603 17:09:45.463608 17324 net.cpp:129] Top shape: 1 512 7 7 (25088)
I0603 17:09:45.463613 17324 net.cpp:137] Memory required for data: 225691648
I0603 17:09:45.463621 17324 layer_factory.hpp:77] Creating layer res5b_branch2a_relu
I0603 17:09:45.463629 17324 net.cpp:84] Creating Layer res5b_branch2a_relu
I0603 17:09:45.463635 17324 net.cpp:406] res5b_branch2a_relu <- res5b_branch2a
I0603 17:09:45.463645 17324 net.cpp:367] res5b_branch2a_relu -> res5b_branch2a (in-place)
I0603 17:09:45.463654 17324 net.cpp:122] Setting up res5b_branch2a_relu
I0603 17:09:45.463661 17324 net.cpp:129] Top shape: 1 512 7 7 (25088)
I0603 17:09:45.463666 17324 net.cpp:137] Memory required for data: 225792000
I0603 17:09:45.463671 17324 layer_factory.hpp:77] Creating layer res5b_branch2b
I0603 17:09:45.463682 17324 net.cpp:84] Creating Layer res5b_branch2b
I0603 17:09:45.463687 17324 net.cpp:406] res5b_branch2b <- res5b_branch2a
I0603 17:09:45.463697 17324 net.cpp:380] res5b_branch2b -> res5b_branch2b
I0603 17:09:45.468660 17324 net.cpp:122] Setting up res5b_branch2b
I0603 17:09:45.468705 17324 net.cpp:129] Top shape: 1 512 7 7 (25088)
I0603 17:09:45.468711 17324 net.cpp:137] Memory required for data: 225892352
I0603 17:09:45.468724 17324 layer_factory.hpp:77] Creating layer bn5b_branch2b
I0603 17:09:45.468737 17324 net.cpp:84] Creating Layer bn5b_branch2b
I0603 17:09:45.468745 17324 net.cpp:406] bn5b_branch2b <- res5b_branch2b
I0603 17:09:45.468756 17324 net.cpp:367] bn5b_branch2b -> res5b_branch2b (in-place)
I0603 17:09:45.468957 17324 net.cpp:122] Setting up bn5b_branch2b
I0603 17:09:45.468969 17324 net.cpp:129] Top shape: 1 512 7 7 (25088)
I0603 17:09:45.468974 17324 net.cpp:137] Memory required for data: 225992704
I0603 17:09:45.468991 17324 layer_factory.hpp:77] Creating layer scale5b_branch2b
I0603 17:09:45.469004 17324 net.cpp:84] Creating Layer scale5b_branch2b
I0603 17:09:45.469010 17324 net.cpp:406] scale5b_branch2b <- res5b_branch2b
I0603 17:09:45.469018 17324 net.cpp:367] scale5b_branch2b -> res5b_branch2b (in-place)
I0603 17:09:45.469063 17324 layer_factory.hpp:77] Creating layer scale5b_branch2b
I0603 17:09:45.469214 17324 net.cpp:122] Setting up scale5b_branch2b
I0603 17:09:45.469226 17324 net.cpp:129] Top shape: 1 512 7 7 (25088)
I0603 17:09:45.469231 17324 net.cpp:137] Memory required for data: 226093056
I0603 17:09:45.469240 17324 layer_factory.hpp:77] Creating layer res5b_branch2b_relu
I0603 17:09:45.469250 17324 net.cpp:84] Creating Layer res5b_branch2b_relu
I0603 17:09:45.469256 17324 net.cpp:406] res5b_branch2b_relu <- res5b_branch2b
I0603 17:09:45.469264 17324 net.cpp:367] res5b_branch2b_relu -> res5b_branch2b (in-place)
I0603 17:09:45.469272 17324 net.cpp:122] Setting up res5b_branch2b_relu
I0603 17:09:45.469280 17324 net.cpp:129] Top shape: 1 512 7 7 (25088)
I0603 17:09:45.469285 17324 net.cpp:137] Memory required for data: 226193408
I0603 17:09:45.469290 17324 layer_factory.hpp:77] Creating layer res5b_branch2c
I0603 17:09:45.469305 17324 net.cpp:84] Creating Layer res5b_branch2c
I0603 17:09:45.469310 17324 net.cpp:406] res5b_branch2c <- res5b_branch2b
I0603 17:09:45.469318 17324 net.cpp:380] res5b_branch2c -> res5b_branch2c
I0603 17:09:45.471443 17324 net.cpp:122] Setting up res5b_branch2c
I0603 17:09:45.471465 17324 net.cpp:129] Top shape: 1 2048 7 7 (100352)
I0603 17:09:45.471472 17324 net.cpp:137] Memory required for data: 226594816
I0603 17:09:45.471480 17324 layer_factory.hpp:77] Creating layer bn5b_branch2c
I0603 17:09:45.471491 17324 net.cpp:84] Creating Layer bn5b_branch2c
I0603 17:09:45.471498 17324 net.cpp:406] bn5b_branch2c <- res5b_branch2c
I0603 17:09:45.471506 17324 net.cpp:367] bn5b_branch2c -> res5b_branch2c (in-place)
I0603 17:09:45.471724 17324 net.cpp:122] Setting up bn5b_branch2c
I0603 17:09:45.471736 17324 net.cpp:129] Top shape: 1 2048 7 7 (100352)
I0603 17:09:45.471742 17324 net.cpp:137] Memory required for data: 226996224
I0603 17:09:45.471753 17324 layer_factory.hpp:77] Creating layer scale5b_branch2c
I0603 17:09:45.471763 17324 net.cpp:84] Creating Layer scale5b_branch2c
I0603 17:09:45.471768 17324 net.cpp:406] scale5b_branch2c <- res5b_branch2c
I0603 17:09:45.471778 17324 net.cpp:367] scale5b_branch2c -> res5b_branch2c (in-place)
I0603 17:09:45.471819 17324 layer_factory.hpp:77] Creating layer scale5b_branch2c
I0603 17:09:45.471940 17324 net.cpp:122] Setting up scale5b_branch2c
I0603 17:09:45.471951 17324 net.cpp:129] Top shape: 1 2048 7 7 (100352)
I0603 17:09:45.471956 17324 net.cpp:137] Memory required for data: 227397632
I0603 17:09:45.471966 17324 layer_factory.hpp:77] Creating layer res5b
I0603 17:09:45.471973 17324 net.cpp:84] Creating Layer res5b
I0603 17:09:45.471979 17324 net.cpp:406] res5b <- res5a_res5a_relu_0_split_1
I0603 17:09:45.471985 17324 net.cpp:406] res5b <- res5b_branch2c
I0603 17:09:45.471993 17324 net.cpp:380] res5b -> res5b
I0603 17:09:45.472023 17324 net.cpp:122] Setting up res5b
I0603 17:09:45.472033 17324 net.cpp:129] Top shape: 1 2048 7 7 (100352)
I0603 17:09:45.472038 17324 net.cpp:137] Memory required for data: 227799040
I0603 17:09:45.472043 17324 layer_factory.hpp:77] Creating layer res5b_relu
I0603 17:09:45.472051 17324 net.cpp:84] Creating Layer res5b_relu
I0603 17:09:45.472057 17324 net.cpp:406] res5b_relu <- res5b
I0603 17:09:45.472064 17324 net.cpp:367] res5b_relu -> res5b (in-place)
I0603 17:09:45.472072 17324 net.cpp:122] Setting up res5b_relu
I0603 17:09:45.472079 17324 net.cpp:129] Top shape: 1 2048 7 7 (100352)
I0603 17:09:45.472084 17324 net.cpp:137] Memory required for data: 228200448
I0603 17:09:45.472090 17324 layer_factory.hpp:77] Creating layer res5b_res5b_relu_0_split
I0603 17:09:45.472096 17324 net.cpp:84] Creating Layer res5b_res5b_relu_0_split
I0603 17:09:45.472101 17324 net.cpp:406] res5b_res5b_relu_0_split <- res5b
I0603 17:09:45.472108 17324 net.cpp:380] res5b_res5b_relu_0_split -> res5b_res5b_relu_0_split_0
I0603 17:09:45.472118 17324 net.cpp:380] res5b_res5b_relu_0_split -> res5b_res5b_relu_0_split_1
I0603 17:09:45.472158 17324 net.cpp:122] Setting up res5b_res5b_relu_0_split
I0603 17:09:45.472168 17324 net.cpp:129] Top shape: 1 2048 7 7 (100352)
I0603 17:09:45.472174 17324 net.cpp:129] Top shape: 1 2048 7 7 (100352)
I0603 17:09:45.472179 17324 net.cpp:137] Memory required for data: 229003264
I0603 17:09:45.472184 17324 layer_factory.hpp:77] Creating layer res5c_branch2a
I0603 17:09:45.472196 17324 net.cpp:84] Creating Layer res5c_branch2a
I0603 17:09:45.472203 17324 net.cpp:406] res5c_branch2a <- res5b_res5b_relu_0_split_0
I0603 17:09:45.472210 17324 net.cpp:380] res5c_branch2a -> res5c_branch2a
I0603 17:09:45.474318 17324 net.cpp:122] Setting up res5c_branch2a
I0603 17:09:45.474347 17324 net.cpp:129] Top shape: 1 512 7 7 (25088)
I0603 17:09:45.474354 17324 net.cpp:137] Memory required for data: 229103616
I0603 17:09:45.474364 17324 layer_factory.hpp:77] Creating layer bn5c_branch2a
I0603 17:09:45.474375 17324 net.cpp:84] Creating Layer bn5c_branch2a
I0603 17:09:45.474382 17324 net.cpp:406] bn5c_branch2a <- res5c_branch2a
I0603 17:09:45.474400 17324 net.cpp:367] bn5c_branch2a -> res5c_branch2a (in-place)
I0603 17:09:45.474591 17324 net.cpp:122] Setting up bn5c_branch2a
I0603 17:09:45.474603 17324 net.cpp:129] Top shape: 1 512 7 7 (25088)
I0603 17:09:45.474608 17324 net.cpp:137] Memory required for data: 229203968
I0603 17:09:45.474619 17324 layer_factory.hpp:77] Creating layer scale5c_branch2a
I0603 17:09:45.474629 17324 net.cpp:84] Creating Layer scale5c_branch2a
I0603 17:09:45.474634 17324 net.cpp:406] scale5c_branch2a <- res5c_branch2a
I0603 17:09:45.474642 17324 net.cpp:367] scale5c_branch2a -> res5c_branch2a (in-place)
I0603 17:09:45.474685 17324 layer_factory.hpp:77] Creating layer scale5c_branch2a
I0603 17:09:45.474803 17324 net.cpp:122] Setting up scale5c_branch2a
I0603 17:09:45.474815 17324 net.cpp:129] Top shape: 1 512 7 7 (25088)
I0603 17:09:45.474820 17324 net.cpp:137] Memory required for data: 229304320
I0603 17:09:45.474829 17324 layer_factory.hpp:77] Creating layer res5c_branch2a_relu
I0603 17:09:45.474838 17324 net.cpp:84] Creating Layer res5c_branch2a_relu
I0603 17:09:45.474844 17324 net.cpp:406] res5c_branch2a_relu <- res5c_branch2a
I0603 17:09:45.474851 17324 net.cpp:367] res5c_branch2a_relu -> res5c_branch2a (in-place)
I0603 17:09:45.474860 17324 net.cpp:122] Setting up res5c_branch2a_relu
I0603 17:09:45.474867 17324 net.cpp:129] Top shape: 1 512 7 7 (25088)
I0603 17:09:45.474872 17324 net.cpp:137] Memory required for data: 229404672
I0603 17:09:45.474877 17324 layer_factory.hpp:77] Creating layer res5c_branch2b
I0603 17:09:45.474887 17324 net.cpp:84] Creating Layer res5c_branch2b
I0603 17:09:45.474894 17324 net.cpp:406] res5c_branch2b <- res5c_branch2a
I0603 17:09:45.474902 17324 net.cpp:380] res5c_branch2b -> res5c_branch2b
I0603 17:09:45.479852 17324 net.cpp:122] Setting up res5c_branch2b
I0603 17:09:45.479900 17324 net.cpp:129] Top shape: 1 512 7 7 (25088)
I0603 17:09:45.479907 17324 net.cpp:137] Memory required for data: 229505024
I0603 17:09:45.479921 17324 layer_factory.hpp:77] Creating layer bn5c_branch2b
I0603 17:09:45.479938 17324 net.cpp:84] Creating Layer bn5c_branch2b
I0603 17:09:45.479946 17324 net.cpp:406] bn5c_branch2b <- res5c_branch2b
I0603 17:09:45.479959 17324 net.cpp:367] bn5c_branch2b -> res5c_branch2b (in-place)
I0603 17:09:45.480260 17324 net.cpp:122] Setting up bn5c_branch2b
I0603 17:09:45.480275 17324 net.cpp:129] Top shape: 1 512 7 7 (25088)
I0603 17:09:45.480283 17324 net.cpp:137] Memory required for data: 229605376
I0603 17:09:45.480300 17324 layer_factory.hpp:77] Creating layer scale5c_branch2b
I0603 17:09:45.480314 17324 net.cpp:84] Creating Layer scale5c_branch2b
I0603 17:09:45.480320 17324 net.cpp:406] scale5c_branch2b <- res5c_branch2b
I0603 17:09:45.480329 17324 net.cpp:367] scale5c_branch2b -> res5c_branch2b (in-place)
I0603 17:09:45.480381 17324 layer_factory.hpp:77] Creating layer scale5c_branch2b
I0603 17:09:45.480523 17324 net.cpp:122] Setting up scale5c_branch2b
I0603 17:09:45.480536 17324 net.cpp:129] Top shape: 1 512 7 7 (25088)
I0603 17:09:45.480542 17324 net.cpp:137] Memory required for data: 229705728
I0603 17:09:45.480552 17324 layer_factory.hpp:77] Creating layer res5c_branch2b_relu
I0603 17:09:45.480563 17324 net.cpp:84] Creating Layer res5c_branch2b_relu
I0603 17:09:45.480571 17324 net.cpp:406] res5c_branch2b_relu <- res5c_branch2b
I0603 17:09:45.480587 17324 net.cpp:367] res5c_branch2b_relu -> res5c_branch2b (in-place)
I0603 17:09:45.480595 17324 net.cpp:122] Setting up res5c_branch2b_relu
I0603 17:09:45.480602 17324 net.cpp:129] Top shape: 1 512 7 7 (25088)
I0603 17:09:45.480607 17324 net.cpp:137] Memory required for data: 229806080
I0603 17:09:45.480612 17324 layer_factory.hpp:77] Creating layer res5c_branch2c
I0603 17:09:45.480625 17324 net.cpp:84] Creating Layer res5c_branch2c
I0603 17:09:45.480630 17324 net.cpp:406] res5c_branch2c <- res5c_branch2b
I0603 17:09:45.480638 17324 net.cpp:380] res5c_branch2c -> res5c_branch2c
I0603 17:09:45.482787 17324 net.cpp:122] Setting up res5c_branch2c
I0603 17:09:45.482815 17324 net.cpp:129] Top shape: 1 2048 7 7 (100352)
I0603 17:09:45.482820 17324 net.cpp:137] Memory required for data: 230207488
I0603 17:09:45.482830 17324 layer_factory.hpp:77] Creating layer bn5c_branch2c
I0603 17:09:45.482841 17324 net.cpp:84] Creating Layer bn5c_branch2c
I0603 17:09:45.482847 17324 net.cpp:406] bn5c_branch2c <- res5c_branch2c
I0603 17:09:45.482856 17324 net.cpp:367] bn5c_branch2c -> res5c_branch2c (in-place)
I0603 17:09:45.483105 17324 net.cpp:122] Setting up bn5c_branch2c
I0603 17:09:45.483119 17324 net.cpp:129] Top shape: 1 2048 7 7 (100352)
I0603 17:09:45.483125 17324 net.cpp:137] Memory required for data: 230608896
I0603 17:09:45.483137 17324 layer_factory.hpp:77] Creating layer scale5c_branch2c
I0603 17:09:45.483157 17324 net.cpp:84] Creating Layer scale5c_branch2c
I0603 17:09:45.483165 17324 net.cpp:406] scale5c_branch2c <- res5c_branch2c
I0603 17:09:45.483173 17324 net.cpp:367] scale5c_branch2c -> res5c_branch2c (in-place)
I0603 17:09:45.483217 17324 layer_factory.hpp:77] Creating layer scale5c_branch2c
I0603 17:09:45.483346 17324 net.cpp:122] Setting up scale5c_branch2c
I0603 17:09:45.483358 17324 net.cpp:129] Top shape: 1 2048 7 7 (100352)
I0603 17:09:45.483364 17324 net.cpp:137] Memory required for data: 231010304
I0603 17:09:45.483373 17324 layer_factory.hpp:77] Creating layer res5c
I0603 17:09:45.483381 17324 net.cpp:84] Creating Layer res5c
I0603 17:09:45.483388 17324 net.cpp:406] res5c <- res5b_res5b_relu_0_split_1
I0603 17:09:45.483395 17324 net.cpp:406] res5c <- res5c_branch2c
I0603 17:09:45.483404 17324 net.cpp:380] res5c -> res5c
I0603 17:09:45.483435 17324 net.cpp:122] Setting up res5c
I0603 17:09:45.483448 17324 net.cpp:129] Top shape: 1 2048 7 7 (100352)
I0603 17:09:45.483454 17324 net.cpp:137] Memory required for data: 231411712
I0603 17:09:45.483460 17324 layer_factory.hpp:77] Creating layer res5c_relu
I0603 17:09:45.483469 17324 net.cpp:84] Creating Layer res5c_relu
I0603 17:09:45.483475 17324 net.cpp:406] res5c_relu <- res5c
I0603 17:09:45.483482 17324 net.cpp:367] res5c_relu -> res5c (in-place)
I0603 17:09:45.483491 17324 net.cpp:122] Setting up res5c_relu
I0603 17:09:45.483499 17324 net.cpp:129] Top shape: 1 2048 7 7 (100352)
I0603 17:09:45.483503 17324 net.cpp:137] Memory required for data: 231813120
I0603 17:09:45.483510 17324 layer_factory.hpp:77] Creating layer pool5
I0603 17:09:45.483518 17324 net.cpp:84] Creating Layer pool5
I0603 17:09:45.483525 17324 net.cpp:406] pool5 <- res5c
I0603 17:09:45.483543 17324 net.cpp:380] pool5 -> pool5
I0603 17:09:45.483573 17324 net.cpp:122] Setting up pool5
I0603 17:09:45.483583 17324 net.cpp:129] Top shape: 1 2048 1 1 (2048)
I0603 17:09:45.483588 17324 net.cpp:137] Memory required for data: 231821312
I0603 17:09:45.483593 17324 layer_factory.hpp:77] Creating layer fc40
I0603 17:09:45.483603 17324 net.cpp:84] Creating Layer fc40
I0603 17:09:45.483608 17324 net.cpp:406] fc40 <- pool5
I0603 17:09:45.483615 17324 net.cpp:380] fc40 -> fc40
I0603 17:09:45.483800 17324 net.cpp:122] Setting up fc40
I0603 17:09:45.483813 17324 net.cpp:129] Top shape: 1 40 (40)
I0603 17:09:45.483817 17324 net.cpp:137] Memory required for data: 231821472
I0603 17:09:45.483826 17324 net.cpp:200] fc40 does not need backward computation.
I0603 17:09:45.483832 17324 net.cpp:200] pool5 does not need backward computation.
I0603 17:09:45.483837 17324 net.cpp:200] res5c_relu does not need backward computation.
I0603 17:09:45.483842 17324 net.cpp:200] res5c does not need backward computation.
…
